a3c_model_LunarLander-v3.pth (torch, 16460 bytes, 7 tensors)

weight f4 [128, 8]
000000 bd 90 0c be a1 00 a0 3e aa c5 98 bf ea 2d cd bf
       -0.13727088 0.3125048 -1.1935322 -1.6029637
000010 5b 87 d0 3f 18 f8 34 3f 64 fe 61 3e 96 82 6b 3e
       1.6291307 0.7069106 0.22069699 0.22999033
000020 c0 57 fc 3d 97 de 89 bd 33 48 14 3e 91 d4 f0 bd
       0.123214245 -0.06731909 0.14480667 -0.11759294
000030 aa d4 1d bd 53 0c 85 3e 6c 4c bf bd da cd 0c 3e
       -0.03853289 0.25985965 -0.09340748 0.13750401
000040 bd e8 36 be a1 1c 9d 3e 87 fb ad bf ba 87 e9 3f
       -0.1786222 0.30685905 -1.3592385 1.8244545
000050 32 55 e8 3f 24 e7 45 3f 20 31 84 3e e8 68 39 3e
       1.8151 0.7730582 0.2581873 0.18106425
000060 09 fc dc bd 0a 3a 39 3e 82 51 38 3e 8f ba 58 c0
       -0.107902594 0.18088546 0.17999843 -3.3863866
000070 6f 08 b6 3f ea cd b1 3e 84 fc a7 3e 14 6f ac 3e
       1.4221324 0.34727412 0.32809842 0.33678496
000080 fe 13 a6 3d 9c 91 80 bd 1c fa 97 3f 0d af 11 c0
       0.08109282 -0.06277773 1.1873202 -2.2763093
000090 f9 37 ee bf d3 ec 9e bf 8b d5 b0 3e f8 3b 98 3d
       -1.8610831 -1.2416023 0.3453792 0.07433313
0000a0 ba 21 59 be 08 5b 1a 3d 60 c1 13 3f 20 38 36 40
       -0.21204272 0.03768447 0.5771694 2.8471756
0000b0 4a 75 e3 bf e5 0a 01 bf 9b a4 92 be 8c 0b c6 be
       -1.7770169 -0.5040725 -0.2864121 -0.38680685
0000c0 e0 96 ce bd f2 a6 a9 3c dc e6 1c bf cb d0 34 40
       -0.10087371 0.020709489 -0.61289763 2.8252437
0000d0 b0 09 44 bc 4d 9d 8c 3e 7a 25 30 3d fc 9a 5b be
       -0.0119652 0.2746376 0.04300449 -0.2144584
0000e0 c1 43 b5 bd 14 e4 1a 3e ff f4 61 bf 4d 37 1e 40
       -0.08850814 0.15126067 -0.8826446 2.4721253
0000f0 ab eb bf 3f b9 0a 38 3f 97 ea e3 3e 0d 8d 6e 3e
       1.4993795 0.7189136 0.44514915 0.23295994
000100 ff 25 11 bd c0 ea 53 3e 17 71 51 3f c5 50 64 3f
       -0.035436627 0.20695019 0.81813186 0.89185745
000110 30 ab 18 c0 f4 b9 be bf ca 82 a6 bb b4 e3 76 be
       -2.3854485 -1.4900498 -0.0050815092 -0.241103
000120 eb b3 eb bd 1c 43 a4 3d 25 e1 84 3e 6a e4 6f 40
       -0.11508926 0.080206126 0.25953022 3.7483163
000130 9e 4b 73 bf ce a7 c8 be 55 c6 bc 3d bb c2 b5 bd
       -0.9503726 -0.39190525 0.09217516 -0.088750325
000140 e8 89 40 be c8 a3 1d be 9f 77 d3 bf cc 72 2f bf
       -0.18802607 -0.15394509 -1.652088 -0.6853454
000150 01 03 59 3f a6 22 65 3f 04 11 0d be c4 aa 30 3d
       0.8477021 0.89505994 -0.13776022 0.043131605
000160 49 63 54 be d6 f7 a1 3e 9d aa 2a 3f c6 d7 3c c0
       -0.20741 0.31634396 0.66666585 -2.9506698
000170 ae f2 98 bf fa 9c bc be 2d f3 a3 3d d9 07 0c be
       -1.194906 -0.36838514 0.080053665 -0.13674869
000180 af cd 68 3e 5b 47 42 bd 97 6e 6a be 94 bb 77 40
       0.22734712 -0.04743133 -0.22893749 3.8708239
000190 ae d4 31 bf ef 4f 56 be 4f 4e be 3e 5c 6e cb 3e
       -0.6946515 -0.2092893 0.3716912 0.39732635
0001a0 8d 77 07 3b f8 b7 15 3e a2 ec 97 bf 08 5c 78 3f
       0.0020670623 0.1462096 -1.186909 0.9701543
0001b0 a9 2b 0e 40 bb 4b 8b 3f f7 d2 18 bd fd 0f 02 bd
       2.2214148 1.0882486 -0.037310567 -0.03175353
0001c0 f7 4b 20 bc 92 70 b1 be e2 e4 b7 be f7 4c f4 3f
       -0.009783736 -0.34656197 -0.3591681 1.9085988
0001d0 03 0c 98 3e e4 88 5c 3d ce 3d 9b 3e da 56 fa 3e
       0.29696664 0.053841487 0.3032059 0.48894387
0001e0 47 59 81 bd bf d9 4e 3e 25 3f 88 be 7c 18 86 40
       -0.063158564 0.20200251 -0.26610675 4.190489
0001f0 42 28 fa be 94 54 5a 3e 9e 7f 9a be f6 41 a4 3c
       -0.4885884 0.21321326 -0.3017549 0.020050984
000200 76 18 87 bd 99 db 27 bd 14 66 34 3f 53 c8 ca 3f
       -0.065964624 -0.04098091 0.7046826 1.5842384
000210 3e 4d e6 bf d8 00 46 bf 5a d4 a7 3e ab 1b c1 3e
       -1.7992322 -0.7734504 0.327792 0.3771642
000220 6b 35 44 3e a5 e2 c4 3b 83 e5 63 3f 0f be 14 c0
       0.19161002 0.0060084634 0.8902208 -2.3241003
000230 2a 13 cb bf 1f 33 9c bf b1 b8 9a 3e f9 ed 29 bc
       -1.5865223 -1.2203101 0.30219033 -0.0103716785
000240 c7 26 b9 bc d9 0b a9 bd b0 d6 20 bc 35 88 53 40
       -0.022601498 -0.08254213 -0.0098168105 3.3051884
000250 cf 18 0d bd 46 c4 97 3d df 05 0d 3f db 98 7c 3e
       -0.034447487 0.07410483 0.55087084 0.24667685
000260 46 ba ed bd 60 f3 bd 3e 0c 49 30 3f 9d 69 33 40
       -0.116077945 0.37099743 0.6886146 2.8033211
000270 47 e1 bd bf 91 ef 43 bf c1 ab 9c be 88 de 91 3e
       -1.4834374 -0.76537424 -0.30599788 0.2849009
000280 e8 d0 ad bc 4c ef 61 3e 41 77 c2 be 45 2b 3d c0
       -0.021217778 0.22063941 -0.3798161 -2.955766
000290 90 d8 c1 3f 85 04 88 3f 3f a7 93 be 08 bc 2b bd
       1.5144215 1.0626379 -0.28838536 -0.041927367
0002a0 1a 54 0a 3e c2 e4 76 be 3c ed 2c be 7e 06 0c 3e
       0.13508645 -0.24110702 -0.16887373 0.13674352
0002b0 55 47 9f 3e 78 df 80 be b6 dc c1 3c 02 99 1b be
       0.3110911 -0.25170493 0.023664813 -0.15195087
0002c0 99 c7 7b be 6c 48 e9 bc 0a ba 48 3f 78 4a 09 40
       -0.24587859 -0.028476916 0.78408873 2.1451702
0002d0 13 24 f7 bf 5c 02 3a bf ba ef ce 3e 6c 40 2b 3e
       -1.9307884 -0.7265985 0.40417272 0.16723794
0002e0 e4 ee c9 3d 22 ad fb 3e 5e df c8 3d 1e ac 5e 40
       0.09860018 0.49155527 0.09808229 3.4792552
0002f0 0b e8 92 be 3e a6 2b be c1 19 8c be 43 e3 11 bc
       -0.2869266 -0.16762635 -0.273634 -0.008904281
000300 ba 02 d0 3e 13 54 ba be 44 f4 8d bd 86 b6 16 be
       0.4062708 -0.3639227 -0.069313556 -0.14718065
000310 06 e6 e7 ba 52 97 86 be c5 62 3e 3f 50 09 26 3f
       -0.0017692454 -0.26287323 0.7436946 0.6485796
000320 a8 2e b9 3e e0 5e 21 be 80 57 68 3c 61 9e 7b 3e
       0.36168408 -0.15758848 0.014181018 0.24572136
000330 cd 70 78 be 79 08 bd be ea a5 17 3e 8b e2 0e 3f
       -0.2426178 -0.36920527 0.14809385 0.5581443
000340 89 99 8d be 9b ac 98 be 93 3a 99 3c bf f0 5c 3e
       -0.276562 -0.29819188 0.018704688 0.21576212
000350 2f 75 c8 3e e2 46 00 be dc 00 ae be ee b9 dd bd
       0.39151904 -0.1252704 -0.3398503 -0.10826479
000360 26 a2 f3 bb f6 d5 16 be f3 ab 67 be 69 f1 a5 3e
       -0.007435101 -0.14730057 -0.22624187 0.32410744
000370 bd 06 b0 3d 6b 6a d8 bd 29 a5 1a 3e ed 6e c7 bb
       0.08595035 -0.105671726 0.15102066 -0.0060862214
000380 fa 3c 8c 3c 52 3c 2e be cb fe b8 3d 4e 63 3c 40
       0.01711892 -0.17015198 0.09032973 2.943561
000390 10 0f 66 be 36 dc b2 bc 2c 00 0b 3f dc 34 ee 3e
       -0.22466683 -0.02183352 0.5429714 0.46524704
0003a0 41 9d 0b bb a2 f7 ce be 97 2c e3 3c d2 03 03 3d
       -0.0021303447 -0.40423304 0.027731223 0.031986065
0003b0 a6 79 2f 3e 53 5e 03 3e 11 c5 3e 3f 38 97 18 3f
       0.17136249 0.1282895 0.7451945 0.5960574
0003c0 8e 77 4a 3e 59 93 d4 3d c2 84 94 bf e6 57 96 bd
       0.19772169 0.10379667 -1.1603014 -0.07340984
0003d0 04 fc 15 40 82 24 a7 3f f2 0a 1e bd 92 e2 5b 3e
       2.3435068 1.3058016 -0.038584657 0.21473148
0003e0 36 bb 92 be 4b 99 5f 3d 2b 83 7c 3f bb 16 e8 3f
       -0.28658456 0.05458955 0.98637646 1.8131937
0003f0 52 11 ed bf fc fe 9a bf 6d 25 c8 be c8 16 e4 3d
       -1.8520911 -1.2109065 -0.39091054 0.11137158

bias f4 [128]
000000 96 24 6f 3c 4a 67 a3 be 1e c3 59 bd b5 e0 1e 3e
       0.014596125 -0.3191474 -0.053164594 0.15515406
000010 83 bf fd 3e 7c f8 36 3e b0 a4 fb 3d ef a7 d6 bb
       0.49560174 0.17868227 0.12287271 -0.006550781
000020 ae 02 f7 3d c4 f6 f0 3d c8 a6 ba 3e 79 b0 40 3e
       0.12061058 0.11765817 0.3645537 0.18817319
000030 29 da 9a 3e b4 46 b8 3d ca d7 73 3e c1 81 8e 3d
       0.30244568 0.089978606 0.23812786 0.06958342
000040 c3 2d e2 3d 3a 17 a7 3e e6 b0 8b 3e bd cf 40 bc
       0.110438846 0.32634908 0.272834 -0.011768279
000050 9e 96 da 3e 72 66 1a be ea b5 48 3e 01 5d c8 bd
       0.42693037 -0.15078142 0.19600645 -0.09783364
000060 fb c2 6f bd 21 b5 48 be b6 b3 06 be 9a 76 be be
       -0.058535557 -0.19600345 -0.13154492 -0.3719986
000070 2f cd d1 3e a8 5d 51 bc 95 5f bf 3d f8 65 56 3e
       0.40976855 -0.012778677 0.09344403 0.20937335
000080 7d 27 22 3e f0 26 5c bd 11 57 9c 3e 83 3a b3 be
       0.15835376 -0.05374807 0.30535176 -0.35005578
000090 94 df ab 3e a2 4d 0b 3f 60 74 6a bc db 21 e8 bc
       0.33569014 0.54415333 -0.0143099725 -0.028336456
0000a0 a6 89 b2 be be 13 21 3d 6d 7b 92 3d f6 84 aa 3d
       -0.34870642 0.03932547 0.07152448 0.083261415
0000b0 31 c8 bd 3e 56 fa 2f 3d 0b 2b 9c 3e 32 07 aa 3e
       0.37066796 0.04296335 0.3050159 0.33208615
0000c0 c1 2f 00 3e a8 06 12 3e 44 8c 9c 3d 28 4e 15 3f
       0.12518217 0.14260352 0.07643941 0.5832238
0000d0 4d 50 c2 3d 48 4a 14 3f c4 5a 48 3d ee 97 0b 3e
       0.094879724 0.57925844 0.048914686 0.13632175
0000e0 79 05 f5 3e 8e a0 0e 3f f0 f6 3c 3d 7d 78 b2 3d
       0.47855738 0.55713737 0.046133935 0.087143876
0000f0 60 4f 51 be 25 23 8b 3e 4c f6 50 3e 84 e6 01 3f
       -0.20440435 0.2717525 0.20406455 0.50742364
000100 86 0d c9 be c7 b0 b4 3e 5b 5d fc 3d fb b5 8b be
       -0.3926813 0.3529112 0.12322494 -0.27287278
000110 f7 6f eb 3e d7 a5 e6 3d 34 33 ac 3e 4e 69 05 3c
       0.4598386 0.112621 0.33632815 0.008142782
000120 1f 3f 75 bb b8 8d 9e 3e 82 3f 04 3d 6b c5 39 bc
       -0.0037421656 0.30967498 0.03228713 -0.011338572
000130 67 8a c0 3e 45 1a c6 bb c2 77 96 3e 94 37 a9 3e
       0.37605593 -0.006045612 0.29388243 0.33050215
000140 a7 a2 8b 3d c9 e2 53 be ee 58 4e be 4b a9 8b bc
       0.06818133 -0.2069198 -0.20151111 -0.017048499
000150 e6 d7 13 bd 05 5b b7 bf 7d 73 02 3e 0b 68 8e 3e
       -0.03609457 -1.4324652 0.12739368 0.27813753
000160 c2 88 b6 3e 2f 25 7b be 35 47 04 3f 3e ed a5 be
       0.35651213 -0.24525903 0.51671153 -0.32407564
000170 c0 66 a2 3e 82 b4 1e 3f dd 37 4d 3e 9e 76 ec 3e
       0.31719017 0.61994183 0.20040841 0.46184248
000180 60 0e bb 3d 19 3a 26 3e 29 54 d3 3e e7 6a ae bb
       0.09133601 0.162331 0.41275147 -0.0053228023
000190 ca 9e c4 3e 80 bb 68 3e 72 4f d3 bd b1 12 51 bb
       0.38402396 0.22727776 -0.10317887 -0.003190201
0001a0 af 14 57 3e d1 7f 04 3e f8 2f 6d 3e aa 2e 17 3f
       0.21003984 0.12939383 0.2316283 0.5905558
0001b0 18 23 ce 3e 45 0a d8 3c 1b f4 b4 3d d8 ea 7d bd
       0.4026115 0.026372084 0.08835622 -0.061991543
0001c0 91 23 f7 3e 00 e9 8d 3e c4 fa e2 3d 64 4d 22 3e
       0.48269323 0.27716827 0.11082986 0.15849835
0001d0 65 eb d3 3e 22 de 55 3e b7 f8 0c 3e a4 2f b6 be
       0.4139053 0.20885518 0.13766752 -0.35583222
0001e0 05 b5 9f 3e 82 46 ab 3e cf d1 12 3e f4 49 b3 3e
       0.31192794 0.3345223 0.14337848 0.3501736
0001f0 da 7a 92 3d 0f a1 d4 3d 3f 6a 96 3e 8a 54 93 3e
       0.07152338 0.10382282 0.29377934 0.28775436

weight f4 [128, 8]
000000 c7 23 ef 3e c5 46 83 3e 77 2f 9e 3e 76 02 a0 bf
       0.46706983 0.2563993 0.30895588 -1.2500751
000010 c2 59 80 3e 63 3b 77 3f 1e 82 21 bc 82 a3 aa be
       0.2506848 0.9657499 -0.0098576825 -0.33327872
000020 8c ba 8a 3d 16 c3 37 be 0e 1f ca be 03 8b 3d 3f
       0.06773862 -0.17945513 -0.39476818 0.7404024
000030 c8 d4 00 bf 37 d8 f3 bf 13 cd 1b be 54 ca 09 3d
       -0.5032468 -1.9050359 -0.15214948 0.03364022
000040 3b 33 c2 be 80 a5 e0 3d 7b fe 0c bf ce 30 7f bf
       -0.3792971 0.109690666 -0.55075806 -0.99683845
000050 ca e8 ff bb 4d 98 8c bf 85 d1 e5 be bd d8 6a be
       -0.007809733 -1.0983979 -0.44886413 -0.22934242
000060 74 fc 0d 3e c8 9c 8b 3d 9b f1 8a 3e 96 d8 a0 bf
       0.13865834 0.06817013 0.27137455 -1.2566097
000070 ef c0 4a 3f f1 bb b6 3f cd 21 fb bd 04 2c ce be
       0.79200643 1.4276105 -0.12262306 -0.40267956
000080 24 52 bb bd 66 d6 19 3e 1c 35 8e be e5 b9 9d bf
       -0.091465265 0.15023193 -0.27774894 -1.2322356
000090 f0 ae 8e be d0 d6 9e bf 1c e3 f7 be 76 21 3e 3d
       -0.27867842 -1.2409306 -0.48415458 0.04641863
0000a0 bb 97 84 bd 8d c6 1d be 02 f1 0b bf 01 62 23 3f
       -0.06474253 -0.15407772 -0.54664624 0.6382142
0000b0 c8 08 c1 be 0b 5d cf bf a5 5b a5 be 49 24 84 3e
       -0.37702012 -1.620027 -0.32296482 0.25808933
0000c0 2f bb 81 3e 29 78 a0 bc 3d 13 c8 3e 03 88 65 bf
       0.25338122 -0.019588547 0.39077178 -0.8966066
0000d0 19 64 1c 3e 12 fa 55 be 18 17 9a be 80 f9 6e be
       0.15272559 -0.20896176 -0.30095744 -0.23337364
0000e0 65 ce 36 be 03 0d a0 3d 46 b5 fe be 86 62 9e bf
       -0.17852171 0.07814982 -0.49747676 -1.2373817
0000f0 69 b8 53 be b4 a5 cc bf 6d 79 c6 be 95 bd 0c be
       -0.20675816 -1.5988069 -0.38764516 -0.13744195
000100 7c 44 1b bf d9 79 fb 3e cf 06 92 bf 8c aa fd bd
       -0.60651374 0.491164 -1.1408328 -0.12386045
000110 88 a9 6c be f8 3e 0e c0 f1 83 69 bd dd 70 b9 bd
       -0.23111546 -2.2225933 -0.057010595 -0.0905473
000120 0a fd 03 bd 19 b7 8f 3d 5f 7e f6 3e 36 41 5e bf
       -0.03222374 0.07017345 0.48143288 -0.86818254
000130 96 34 71 3f a3 d6 fa 3f a8 7f 4a be 65 56 6b be
       0.94220865 1.9596752 -0.1977526 -0.22982176
000140 27 59 b9 bf 0b fb 8f 3f 3f 35 00 c0 ae 21 12 bf
       -1.4480332 1.1248487 -2.00325 -0.5708264
000150 6b 52 8b be 79 fc 26 c0 0c 2d 3c be c1 f7 cb 3d
       -0.27211317 -2.6091597 -0.18376559 0.09959365
000160 d3 b4 58 3e 7e 29 d8 bc 31 5f c2 3e de 37 38 3f
       0.21162729 -0.026386973 0.3796325 0.71960247
000170 4f 83 8e 3e 9f 64 d8 3f 32 c3 32 be 44 c8 d7 bd
       0.27834556 1.6905707 -0.17457274 -0.105362445
000180 8e 79 48 bd 11 bd 84 3e 17 d7 cc be ae 94 a7 bf
       -0.04894405 0.25925496 -0.4000785 -1.3092248
000190 be 2a 01 be 6b 1f 90 bf db 54 cd be 39 7a 25 3e
       -0.12613961 -1.1259588 -0.40103802 0.16159905
0001a0 bc 22 22 bd f6 1c c0 be fb b5 21 3e 18 d6 2a 3f
       -0.039583907 -0.37522095 0.15792076 0.6673293
0001b0 50 9a 48 3e a5 1c 00 3e f1 bf 8f 40 8b 7b 50 c1
       0.19590116 0.12510927 4.4921803 -13.030162
0001c0 e7 fd e7 3e 05 d6 dd 3d 25 68 ab 3e 89 e8 af bf
       0.453109 0.108318366 0.33477893 -1.3742839
0001d0 e0 6d 1a 3f 78 c0 d8 3f cc a2 c3 bd 89 79 df be
       0.60323906 1.6933737 -0.095525354 -0.4364741
0001e0 62 bd a8 bd 61 d5 25 3e af b4 00 bf eb 6d 88 bf
       -0.08239247 0.16194679 -0.502757 -1.0658544
0001f0 99 8c cc be 0b 14 d3 bf 99 ac 97 be b9 97 8b be
       -0.39951017 -1.6490492 -0.2962387 -0.27264193
000200 45 57 d7 3c 67 ce de bb ff c6 fc be d8 5b 33 3f
       0.02628673 -0.0067995074 -0.49370572 0.7006202
000210 3e e1 d3 be c8 11 c9 bf 70 15 51 bd 23 97 e5 3d
       -0.41382784 -1.5708551 -0.051045835 0.11210468
000220 ff bf c0 3e 37 c6 32 3d d8 d4 01 3f 99 6c 92 bf
       0.3764648 0.043646064 0.507154 -1.1439391
000230 e9 24 41 3f 4c 75 b3 3f 80 12 e6 3d 94 50 2d 3d
       0.75446945 1.4020171 0.11233997 0.042313173
000240 64 1a f6 3d 09 92 16 be 6b 96 c0 3e b4 5e 19 3f
       0.12016752 -0.14704145 0.3761476 0.5991013
000250 b4 f1 1d 3f 29 8b fe 3f 4c 29 0a be dc ec 2c 3b
       0.61696935 1.9886218 -0.13492316 0.0026386296
000260 3b 4d 51 bf 3d 02 11 3f 1a 95 8a bf 4c 7a c5 bd
       -0.8175847 0.5664404 -1.0826752 -0.09642467
000270 1f 0f 17 be d8 dd 0e c0 22 6a 2c be 50 20 81 3a
       -0.14751862 -2.2322903 -0.16837361 0.0009851549
000280 77 4e 70 3e ce aa a4 3d 47 50 a6 3e 72 20 c2 bf
       0.23467432 0.08040391 0.32483122 -1.5166152
000290 90 4e 2c 3f 8e c5 bb 3f a9 1f 37 3e a4 1b 0b 3e
       0.67307377 1.4669664 0.17883171 0.13584763
0002a0 28 7c 39 3d 01 5c ef be 9e f8 67 be 97 e9 48 3d
       0.04528442 -0.4674988 -0.22653434 0.049050894
0002b0 e0 80 00 3e f5 a1 bc 3d 5f ac 66 be 15 ff 18 3e
       0.12549162 0.09210578 -0.22526692 0.14941056
0002c0 7e 97 75 be 20 b4 54 be 51 e1 8f be 4e c9 06 3f
       -0.23983571 -0.20771837 -0.2810159 0.52650917
0002d0 ca ef 06 bf d5 64 00 c0 d2 6d 9a be ae 07 21 ba
       -0.5270964 -2.0061543 -0.3016191 -0.0006142807
0002e0 5b 38 90 3e c2 75 86 be c5 23 2a bd 32 11 0b 3f
       0.28167996 -0.26261717 -0.04153802 0.5432311
0002f0 08 16 e7 be 2a fd af 3e ae 74 8c 3f 5a 6d 44 3f
       -0.45133996 0.34372836 1.0973108 0.7672936
000300 7c 8b 9b be 12 23 45 be 6d eb 81 be ae 34 ab 3e
       -0.30379856 -0.1925166 -0.25374928 0.3343863
000310 78 56 8f be d2 d7 e5 bf fa 25 a9 bd f0 58 aa be
       -0.27995658 -1.7956488 -0.082591966 -0.3327098
000320 36 9a a7 be 75 69 94 be 00 e0 59 3d 16 a4 24 3f
       -0.3273484 -0.28986707 0.05319214 0.64312875
000330 c7 b8 38 be 2b 48 99 3d d8 33 0c 3f 3e e9 64 be
       -0.18039237 0.07484468 0.5476661 -0.223546
000340 f0 32 4a bd a0 68 0e 3d 44 49 96 be 3c 87 df 3e
       -0.049364984 0.034767747 -0.29352772 0.43657863
000350 25 64 e1 bd 65 99 8d bf b9 08 c7 3b 8a 5f 1e be
       -0.11005429 -1.1062437 0.006074038 -0.15466133
000360 4f 61 c3 3c 2f e2 c6 3d c2 04 cb be 0f 29 a5 bf
       0.023850111 0.0971111 -0.39652067 -1.2903155
000370 70 bd 0d be 87 9d 5e bf c5 08 ae be ea 6b 84 bd
       -0.13841796 -0.8695912 -0.33991066 -0.064658955
000380 e0 fa d0 bc 37 5c 01 3e 42 4f a5 3e a3 ec a2 bf
       -0.025510252 0.12632833 0.3228703 -1.2728466
000390 c8 f7 fc 3e 46 9e e5 3e 01 e5 b4 be 94 19 1e be
       0.49407792 0.44847316 -0.35330966 -0.15439445
0003a0 03 ab 5c 3e 25 fd 93 3e 4f ff f2 3e eb 14 70 bf
       0.21549611 0.2890407 0.4746041 -0.9378192
0003b0 94 31 1e 3f 94 94 44 3f 21 70 85 be e6 f5 65 be
       0.617944 0.7678921 -0.2606211 -0.22457084
0003c0 8d 3b 57 be 6b e9 51 be 7c 74 c7 be 70 2c e0 3e
       -0.2101881 -0.20499198 -0.38956058 0.43783903
0003d0 52 fa 8b be bf 9b d2 bf 8c d9 ae be 06 97 9d 3d
       -0.27339417 -1.645378 -0.3415035 0.07694821
0003e0 b5 8f d5 bd 68 a4 50 3f dd d9 8e bd 39 e6 aa 3f
       -0.104278006 0.81500864 -0.06975148 1.3351508
0003f0 50 e4 14 be 3a 69 fe 3e bb ac 27 3d be 37 31 be
       -0.1454022 0.49689656 0.040936213 -0.1730642

bias f4 [128]
000000 58 f0 04 bd e4 44 a2 be 9f 3a b9 3e f5 fe ba 3e
       -0.032455772 -0.31693184 0.36177537 0.36522642
000010 ac b5 a1 3e e6 6f b9 be f3 fd 1c 3f db 2f 8c 3e
       0.31583917 -0.36218184 0.61324996 0.2738026
000020 8d 5b b5 be e3 a4 83 3e 6e 41 e9 be 7c b3 bd be
       -0.3542141 0.25711736 -0.4555773 -0.37050998
000030 66 d8 9e 3d 81 a8 4d be 4b 96 65 3e 99 93 8b 3e
       0.077561185 -0.2008381 0.22420613 0.27261046
000040 ed e3 04 bf 7a c4 ef 3e 75 6f 8f be 91 ec cb be
       -0.5191029 0.46829587 -0.28014722 -0.39828923
000050 0a 55 82 3e 7d ba 8c be 64 5a 97 be 12 03 8a 3f
       0.25455505 -0.2748603 -0.2956115 1.0782187
000060 ab b6 4e be b5 69 93 bd b2 21 97 be d9 30 b8 3e
       -0.2018687 -0.071978964 -0.29517895 0.35974768
000070 4d 51 b3 3e 3a b4 91 3e 0a c0 59 be 0e 57 c8 3e
       0.35022965 0.28457814 -0.21264663 0.39128917
000080 c4 d6 34 3e b4 51 e0 be 14 81 a8 3e 3c 69 0e 3f
       0.17660052 -0.43812335 0.3291098 0.55629325
000090 4f d6 88 be 19 95 a9 3d 9a e0 b0 3e 15 4c 04 3f
       -0.26726004 0.08280391 0.34546357 0.5167859
0000a0 d1 59 e0 be 44 dd a2 3e 49 04 12 bd ac 66 1e 3c
       -0.43818524 0.31809437 -0.035648618 0.009668034
0000b0 68 c4 d4 3e fb 52 57 3e 0c ef 6f bc ec 3d 47 3f
       0.41556096 0.21027748 -0.014644396 0.7782886
0000c0 66 dc 26 bc bb 10 7d 3e 67 35 97 3e 84 d6 d5 3e
       -0.010184383 0.24713413 0.2953293 0.41765225
0000d0 ac bb 62 3e 7d fe da be ac c4 8d be c3 47 e0 3e
       0.22141904 -0.42772284 -0.2768911 0.4380475
0000e0 84 77 2d 3e 99 63 a2 3e a8 f2 3d 3f 49 c3 4f be
       0.16940123 0.31716612 0.7419839 -0.20289339
0000f0 86 c8 3f 3d bb 76 8d be 93 36 d5 3d 26 a0 00 3e
       0.046822093 -0.27629647 0.104108 0.12561092
000100 28 3d 03 bf 4b 3a cc be 0a de 99 3e f5 68 d6 3e
       -0.5126519 -0.39888224 0.30052215 0.4187695
000110 c2 03 e7 3e a9 ef ab 3e 10 c9 3d 3e 11 8d 40 be
       0.45120054 0.33581284 0.1853373 -0.18803813
000120 13 6c 5b 3e 9b c7 cc 3e f3 d6 a3 be 6f bd 14 3e
       0.21427946 0.39996037 -0.3199993 0.14525388
000130 bb 96 e1 be 9d bb 60 bd c5 af 94 3e e2 91 a1 be
       -0.4406031 -0.054866422 0.29040352 -0.31556612
000140 ac 77 e9 3b 7b d5 7c 3d 29 f0 c8 3c 30 0e 09 3f
       0.0071248617 0.06172703 0.02452858 0.53537273
000150 43 31 99 3e b2 e4 ae be e6 ab 54 be 01 4a 99 3f
       0.29920396 -0.34158856 -0.20768699 1.1975709
000160 05 f6 02 3e f7 97 e4 bd b4 b6 19 3f 59 f9 63 3e
       0.12789162 -0.111617975 0.6004441 0.22263087
000170 eb c9 80 3e c3 ad de 3e ae f4 8b 3e 23 76 80 be
       0.2515405 0.43491945 0.27335113 -0.2509013
000180 d9 4f 85 3f d6 be 98 3e fb 57 86 3e 76 02 d7 3c
       1.0414993 0.29833096 0.26239 0.02624629
000190 87 ad 70 3f f3 4e bc 3d 1c 50 47 be ab a1 71 be
       0.9401478 0.09194746 -0.19464153 -0.23596828
0001a0 cb e2 22 be 4b 32 bf 3e ba f5 c0 3d 9e eb 52 bd
       -0.15906827 0.37343058 0.094218686 -0.051494233
0001b0 93 05 f2 be 0e 2b fb bd 43 75 1c 3f c4 e3 8b 3e
       -0.47269878 -0.122640714 0.6111643 0.2732221
0001c0 4a 19 50 3f a5 b3 8a 3e 9f c2 80 be 98 aa 0f 3e
       0.8128859 0.27090183 -0.25148484 0.1402992
0001d0 c9 0c 9e 3e f2 15 22 3f 0e 05 e0 be 50 02 b9 3e
       0.3086913 0.63314736 -0.43753856 0.36134577
0001e0 9f a2 81 3e 92 fa ee be cc a0 cc be 5a c2 82 bb
       0.25319383 -0.46675545 -0.39966428 -0.0039904537
0001f0 7c ad 97 be a0 d1 d5 3e df c0 23 3e 63 f6 03 bf
       -0.29624546 0.41761494 0.15991543 -0.5154783

weight f4 [4, 128]
000000 51 01 a9 3e 16 b1 f9 3c d0 69 9e 3e 72 b6 36 3e
       0.33008817 0.030479949 0.30940104 0.17843035
000010 ad 47 6c 3e 08 cb e9 bd ba d9 94 3d 3f 08 c3 3e
       0.23074217 -0.11415678 0.072680905 0.3809223
000020 c3 64 4b be 6a ce 4b 3e 20 fa 8a 3e a6 9e 8f bd
       -0.19862656 0.1990296 0.27143955 -0.07012682
000030 ec ff 9e 3e 92 76 8e bd 11 12 9d 3e 5f e5 e2 bd
       0.31054628 -0.06956209 0.30677846 -0.11078905
000040 fc 15 09 3f 9a dd 15 3e a2 3c c3 3e e9 ff 4e bd
       0.5354917 0.14635316 0.38132197 -0.050537024
000050 0a c9 ca be d7 e3 35 be 6a 3b a4 3e fb 55 c0 bc
       -0.39606506 -0.17762695 0.3207658 -0.023478499
000060 d2 57 cf 3e c9 90 9e 3e a2 72 ca 3d c6 a2 a4 3d
       0.4049669 0.30969837 0.09885146 0.08038859
000070 11 b3 b0 3e e7 9f bc 3e bf 03 8b bc 12 45 f7 bd
       0.34511617 0.36840746 -0.01696956 -0.12073721
000080 15 53 b8 3d 50 1a 68 bb cb 9f b6 be c8 0e 99 bd
       0.09000222 -0.0035416074 -0.35668787 -0.074735224
000090 a2 76 e4 be d7 77 1c be fd 43 bb 3d 28 5f 7c 3e
       -0.4462176 -0.1528009 0.09143827 0.24645674
0000a0 50 40 d7 3c 75 eb 6c be bf 6c cd 3e 1b 8f fa bc
       0.026275784 -0.23136695 0.4012203 -0.030585816
0000b0 93 50 16 3e 6e b3 87 3e 62 41 e4 be 37 c0 80 3e
       0.14679174 0.2650408 -0.44581133 0.25146648
0000c0 e8 f7 4d bd 54 10 e0 bd a1 c2 0c be 29 86 a5 be
       -0.05028525 -0.10940614 -0.1374612 -0.3232892
0000d0 34 bc b7 3e fe 80 f6 3c 9c c4 b7 3e bd 00 05 be
       0.35885775 0.030090805 0.3589219 -0.12988563
0000e0 34 ae ab be 83 94 0a 3e bd 27 ae be 55 42 c6 3b
       -0.33531344 0.13533215 -0.34014693 0.006050388
0000f0 c1 2d 0b 3b f8 be b6 be ea 17 c5 3a 1a f1 1d 3e
       0.0021236988 -0.35692573 0.0015037034 0.15424004
000100 e6 a3 89 bd 1f 53 a2 be 95 7b 91 3e 60 65 27 bd
       -0.06720714 -0.3170404 0.28414598 -0.040868163
000110 0d a3 9b 3d 49 08 a7 3e 14 11 d9 be 28 8d 9a 3e
       0.07599459 0.3262351 -0.42395842 0.3018582
000120 60 6a eb bb be d0 fa 3e b2 3f dd 3e 4b a9 49 bd
       -0.0071843117 0.48987383 0.43212658 -0.049233716
000130 93 46 63 be df cb c3 3e 2a b5 0a be 95 98 5c be
       -0.2219489 0.3824148 -0.13545671 -0.2154258
000140 48 22 6d 3e 48 57 78 3e c5 77 0a 3e 2c 0b 3b be
       0.23157609 0.24252045 0.13522251 -0.1826598
000150 bd f4 26 be 73 68 64 be 47 42 0f 3c 3e a5 47 3b
       -0.16304298 -0.22305469 0.008743829 0.0030463482
000160 a9 ad 8e be ad 89 dc 3e d4 df cd 3d 49 e0 7d 3d
       -0.27866867 0.43073788 0.100524575 0.061981473
000170 56 a7 e7 bd 79 02 6f 3e e8 e8 a2 3e 58 da 6f 3d
       -0.11311214 0.23340787 0.31818318 0.05855784
000180 a1 4c b5 3e a9 c8 c2 3e 49 95 89 3e ae 96 98 bc
       0.35410026 0.38043717 0.26871708 -0.018626537
000190 9f 41 86 3d 40 bd 96 be c1 90 97 bd 7e b8 5a 3e
       0.06555485 -0.2944126 -0.074006565 0.2135944
0001a0 8e a3 21 be 8d bd 5e 3e 6d 31 3b be 8b cc af be
       -0.15785047 0.21751995 -0.18280573 -0.3433574
0001b0 52 36 60 bd 4a 84 88 3e 25 b4 f2 bd a3 ec 6d 3e
       -0.054739304 0.2666343 -0.11850766 0.23234801
0001c0 fd 45 9a be 99 bf ca 3d 8e 0c 6b bd 3a 34 af be
       -0.30131522 0.098998256 -0.05738502 -0.34219533
0001d0 7f 9f c4 be ad 1e 94 3e 81 53 88 3e 2c 1f 63 bd
       -0.38402936 0.28929654 0.26626208 -0.05544965
0001e0 db de be be 9b 7c c0 be fc 2c 4a bd 6d 3e a5 be
       -0.372794 -0.37595066 -0.049359307 -0.3227419
0001f0 e3 7f 6a bd 4e 8e 67 3d d0 0e 58 3e b2 cb f1 bd
       -0.05725087 0.056532197 0.210994 -0.1180643
000200 16 5d 0d bf 06 fe 30 bd bf 73 ef be b5 24 4e bf
       -0.5522016 -0.043211006 -0.46767995 -0.8052476
000210 6b 04 ab 3e f0 0d 83 3f 16 c7 bb 3e 25 80 81 be
       0.33401808 1.0238628 0.36675328 -0.2529308
000220 c4 1c 44 3f 0d d5 0f 3f 96 b1 11 bf a9 2f 3d 3d
       0.7660639 0.56184465 -0.569116 0.04618803
000230 e7 1e e5 3e 25 db 0c bf d5 e6 53 3d b1 b7 11 3f
       0.4475014 -0.5502189 0.05173381 0.56920916
000240 5d 2b 3d 3f 11 69 20 3e 43 b5 5e 3e 10 a4 58 3f
       0.7389429 0.1566508 0.21748833 0.8462534
000250 fd 83 04 bf e0 e6 e1 bc 02 2c 1f 3f 05 6f 0e 3f
       -0.517639 -0.02757591 0.62176526 0.5563815
000260 39 3e 8d bc b1 4a 9c 3d ae fa 07 bd 6a 91 cf bc
       -0.017241584 0.07631434 -0.03319805 -0.025337894
000270 7d 7e d8 3d 6e ce f3 bd f9 3f 5e bf 2a 59 86 3f
       0.10571001 -0.11904608 -0.86816365 1.0495961
000280 f6 af 96 bf 6d fb 03 bf b4 f6 1c bd 9e 11 0b 3d
       -1.1772449 -0.5155552 -0.038321212 0.033952348
000290 fc 94 26 bf 1a dc 2f 3f 8c c1 14 3f 29 b6 be be
       -0.6507108 0.68695223 0.5810783 -0.37248352
0002a0 16 35 86 3d 36 e1 52 3f c6 75 18 be e2 42 91 be
       0.06553094 0.82374895 -0.14888677 -0.2837134
0002b0 8a 2d 4b bf 7a 5f 18 3f 8c aa a7 bd b5 d7 03 3e
       -0.7936636 0.59520686 -0.08186826 0.12875254
0002c0 e1 53 00 3e 2f d6 62 3f 18 0b 2d bf ca de a6 bd
       0.12531997 0.8860807 -0.6759505 -0.081479624
0002d0 7d fa be be 47 fa 85 be cd 4a f9 39 4e b0 5a 3e
       -0.37300482 -0.2616751 0.00047548712 0.21356317
0002e0 ed 1e a0 3c 7f 40 b5 3d ae b9 bc 3e a9 8c 23 3f
       0.019545997 0.08850192 0.36860412 0.63886505
0002f0 0b d3 33 3d b0 57 51 be 77 1b 99 be 4e 76 74 be
       0.043902438 -0.20443606 -0.29903767 -0.23873255
000300 00 18 63 bd a5 13 80 be a4 07 27 3e a6 c5 8f 3c
       -0.05544281 -0.25014988 0.16311508 0.0175503
000310 24 5f 88 bf 6c 4f 74 3f dc b9 a2 be cd 93 99 3e
       -1.0654035 0.9543369 -0.31782424 0.29995576
000320 69 47 be 3e ec 63 a6 be d4 23 49 3d 21 a2 09 3f
       0.37163857 -0.3249811 0.049106434 0.53763014
000330 63 c3 8c bf d2 4d 24 3d 68 e0 f8 3e 64 21 a7 3e
       -1.0997127 0.040113278 0.48608708 0.32642663
000340 2b ab 0c be d7 b2 33 3f b8 6b dc be ac e5 17 be
       -0.1373717 0.7019476 -0.43050933 -0.14833707
000350 0c ba 0b bf 57 c2 78 3e 67 5c 55 bf 5c a7 79 3e
       -0.5458076 0.24292885 -0.8334412 0.24380249
000360 d5 ed fc bc 0f 25 9f 3e 06 97 95 3e a4 00 6b bd
       -0.030875126 0.3108296 0.29216784 -0.057373658
000370 71 7f 7f be bc 8b 0a bf 23 51 c6 be e0 55 b8 be
       -0.24950959 -0.5411947 -0.38733777 -0.36003017
000380 d4 59 e3 3e e7 f4 be 3d 35 9c 09 3f 6b 07 1f bf
       0.4440447 0.09324055 0.5375398 -0.62120694
000390 bd 1e a4 3d b1 4b a5 be 33 dd c0 be 56 33 dd 3e
       0.08013675 -0.3228431 -0.37668762 0.4320323
0003a0 52 27 d7 3e 7a 8a 76 be 05 99 e5 be 62 59 c1 3c
       0.42022187 -0.24076262 -0.44843307 0.023602191
0003b0 ea 83 14 bf e6 0b 4c 3f 5c 95 d7 be c6 11 32 3f
       -0.58013785 0.79705656 -0.4210614 0.6955837
0003c0 10 dc a9 be a4 ff 0c bf 4c d0 66 3f f2 96 d3 be
       -0.33175707 -0.55077577 0.90161586 -0.413261
0003d0 36 5c 90 be 02 01 08 bf 95 f4 70 3f 4a 73 72 3d
       -0.2819535 -0.5312654 0.941232 0.05919198
0003e0 7a 5a 9b bd 95 36 88 3e 71 c0 c4 3d f5 f4 db 3e
       -0.075856164 0.26604143 0.09607018 0.42960325
0003f0 92 56 33 bf 4c 93 06 be a0 6f 6b be 6b 40 e2 be
       -0.7005397 -0.13142127 -0.229918 -0.44189772

bias f4 [4]
000000 0b 20 41 3c d8 4f 0c bd 8b 26 3f 3e d6 de a8 bb
       0.011787425 -0.034255832 0.18667047 -0.0051535172

weight f4 [1, 128]
000000 6e 3b 44 bf 1f e6 c2 bf cc 78 31 bf 3d 1e cc bf
       -0.7665318 -1.5226477 -0.69324946 -1.5946728
000010 22 cf 4d bf 11 4a ad bf 66 2e 31 bf fd 4c 99 bf
       -0.80394185 -1.3538228 -0.69211423 -1.197662
000020 b3 06 90 bf 4b 29 e5 bf 72 7a a8 bf c7 af b3 bf
       -1.1252044 -1.7903227 -1.3162367 -1.4038018
000030 ef e4 d1 be 75 50 4e 3e 7e 2d c2 bf 9c f5 a5 bf
       -0.40994975 0.2014788 -1.5170133 -1.2965579
000040 03 25 b9 bf 47 8f cf bf 7b 96 9d bf a2 4f 9a bf
       -1.446442 -1.62156 -1.2311548 -1.2055552
000050 4f a0 c2 bf d9 78 50 bd 12 7a a3 bf 2f 61 7a 3f
       -1.5205172 -0.0508965 -1.2771628 0.9780454
000060 49 a5 ce bf 37 8c ad 3e 89 6d 0c bf ef 57 29 bf
       -1.6144191 0.33896038 -0.5485464 -0.661498
000070 75 f2 22 bf c6 89 36 bf 8f d4 a2 bf 47 7d 8e 3e
       -0.6365121 -0.71303976 -1.2721118 0.27829954
000080 44 7a b2 bf 71 73 9d bf 85 17 77 bf 60 4b c7 3e
       -1.3943563 -1.2300855 -0.9652026 0.38924694
000090 55 d1 b7 bf bd e0 84 bf 21 d7 87 bf ef 50 01 3f
       -1.4360758 -1.0381085 -1.0612527 0.5051412
0000a0 21 4a b0 bf b1 23 84 bf f0 0b bd be a6 4a b5 bf
       -1.3772622 -1.0323392 -0.3692317 -1.4163406
0000b0 b2 49 cf be 68 aa e1 bf 6f 3e 78 bf c4 4c 1f 3f
       -0.40485913 -1.7630129 -0.96970266 0.6222651
0000c0 fd fb bf be 4c a6 d4 be ee bb 99 bf 3d 37 8d bf
       -0.3749694 -0.41533124 -1.2010477 -1.1032482
0000d0 a4 1b b9 bf 89 e7 87 bf 1a 87 ad bf 72 30 76 bf
       -1.446156 -1.0617534 -1.3556855 -0.9616767
0000e0 eb f0 35 bf 41 e4 aa bf 1b 64 03 3f 22 98 0f bf
       -0.71070737 -1.3350908 0.51324624 -0.5609151
0000f0 c5 de 52 bf 36 42 a7 bf e0 5e e1 be dc 58 ca bf
       -0.8237117 -1.3067081 -0.44017696 -1.5808368
000100 b8 4a 45 bf 34 3b 91 bf 08 3d 13 bf af 7c 72 bf
       -0.77067137 -1.1346192 -0.57515 -0.947215
000110 3d 29 64 3f b5 c4 ec be 48 9c 8f bf 11 ad 9d bf
       0.89125425 -0.46243826 -1.1219568 -1.2318441
000120 1f 37 7a bf 46 ac 94 bf e6 ba ba bf 08 47 5a bf
       -0.9774036 -1.1615074 -1.4588287 -0.85264635
000130 d1 b9 a8 bf 26 67 5b bf 54 4a 7e be 73 a0 b0 3c
       -1.3181707 -0.8570427 -0.24833041 0.021560883
000140 13 e1 ae bf 5d 84 d9 bf fc c1 4c 40 24 91 21 3f
       -1.3662437 -1.6993519 3.1993399 0.6311209
000150 81 16 82 bf 26 5a ae bf 72 d4 06 bd 1d 96 80 3f
       -1.0163118 -1.3621261 -0.032917447 1.0045811
000160 1a d8 a0 bf 48 e2 83 bf 4f 1a 2f 3f 36 4e 7d bf
       -1.2565949 -1.030343 0.6839952 -0.98947465
000170 69 41 ac bf 7d dd 35 bf bb bf aa bf 8b 48 d9 3e
       -1.3457462 -0.7104109 -1.3339761 0.42438158
000180 08 fb 83 3f 8c e1 c9 bf ba 49 62 bf de 70 b0 be
       1.0310984 -1.5771956 -0.8839375 -0.3446111
000190 dd 1d 4c 3f 75 b4 18 bf 80 97 a6 be 08 ab bd bf
       0.7973307 -0.59650356 -0.3253746 -1.481782
0001a0 67 60 9a bf 5b 01 16 bf cc 5d 02 bf ae 70 67 40
       -1.206067 -0.5859582 -0.5092437 3.6162524
0001b0 84 dc 7e bf e8 c0 a7 bf 39 af a3 3e 88 1a 5c bf
       -0.9955523 -1.3105745 0.31969622 -0.85977983
0001c0 3b 95 07 3f 94 3f c1 be c3 45 c2 bf 95 15 b6 be
       0.5296208 -0.3774382 -1.517754 -0.3556334
0001d0 53 3a 86 bf 17 8a e6 3e 91 f9 a4 bf 3a 2e 6c bf
       -1.0486549 0.4502723 -1.2888662 -0.92258036
0001e0 0e 16 64 bf a9 0a a9 bf 0c 72 89 bf 67 ea ba bf
       -0.8909615 -1.3206378 -1.0737929 -1.4602784
0001f0 0f 67 b8 bf e5 41 b5 bf 38 aa c7 bf 14 04 96 bf
       -1.4406451 -1.4160734 -1.5598822 -1.1719995
