cartPole_v1_dqn.pth (torch, 72280 bytes, 6 tensors)

fc1.weight f4 [128, 4]
0	0xbf1d1a33	-0.613681
1	0xbea4831b	-0.32131276
2	0xbf5ff2ce	-0.87479866
3	0xbe78e13f	-0.24304675
4	0xbea782f1	-0.32717088
5	0x3eb885cd	0.36039582
6	0xbe819f11	-0.2531667
7	0x3f49563c	0.7864721
8	0x3ed4e50e	0.41581005
9	0xbe829043	-0.25500688
10	0xbe64b426	-0.22334346
11	0x3da3bb7b	0.079947434
12	0x3f596ef6	0.8493494
13	0x3d0a9fbe	0.03384375
14	0xbf316453	-0.6929371
15	0xbd891d1e	-0.06695007
16	0xbd739061	-0.059463862
17	0x3c6c4baf	0.014422341
18	0xc02e17b4	-2.7201967
19	0xbe6dabf8	-0.23210132
20	0xbce795df	-0.028269706
21	0x3a9d396d	0.0011995264
22	0xc01d4280	-2.4571838
23	0xbe9021f5	-0.28150907
24	0xbe939fc7	-0.28832838
25	0x3eaaaef2	0.33336598
26	0xbed9f5c5	-0.4257032
27	0x3dcddb7e	0.100516304
28	0xbe637946	-0.22214231
29	0x3e433373	0.19062595
30	0xbe29c0f1	-0.16577508
31	0x3decc9ce	0.11561929
32	0xbecf89fe	-0.40534967
33	0x3ebb5a56	0.36592358
34	0x3f4c5cf6	0.7982935
35	0xbf08d0ea	-0.5344378
36	0x3e47b5cc	0.19502944
37	0xbda84d43	-0.082178615
38	0x3f6a4cad	0.9152325
39	0x3ebd005d	0.3691434
40	0x3f0aa7ae	0.5416211
41	0x3e848f80	0.25890732
42	0x3f178fbf	0.59203714
43	0x3e24499c	0.16043705
44	0x3e367043	0.17816262
45	0xbe0bb33f	-0.13642596
46	0x3f19b369	0.60039383
47	0xbe00ecb2	-0.12590292
48	0xbe9a0b83	-0.30086908
49	0x3e07ab28	0.13248885
50	0x402941f8	2.6446514
51	0x3f3e8a1d	0.74429494
52	0xbe80cd77	-0.25156757
53	0x3e79dc60	0.24400473
54	0x3f0886bb	0.5333058
55	0xbde59ac3	-0.11211159
56	0xbd8a504a	-0.06753595
57	0x3e3ef2cb	0.18647306
58	0xbf779c53	-0.96722907
59	0x3eac6d68	0.3367722
60	0xbe28e693	-0.16494207
61	0xbba39a3c	-0.0049927514
62	0x3faf3037	1.3686589
63	0x3ec7f356	0.39052838
64	0xbf7f90a1	-0.9983006
65	0x3e4cd9f4	0.20005018
66	0xbddc6341	-0.10761119
67	0x3e8c5d57	0.27414963
68	0x3e2526a7	0.16128026
69	0x3f0c3620	0.5477009
70	0x3fa942d3	1.3223518
71	0x3ed9f22d	0.42567578
72	0xbd967620	-0.07346749
73	0x3c34065a	0.010987842
74	0xbe8b1652	-0.27165467
75	0xbe1e8bc4	-0.15483004
76	0xbef0ee56	-0.47056836
77	0xbc7753bb	-0.0150956465
78	0x3fb2c0e4	1.3965116
79	0xbf02768e	-0.5096215
80	0xbf92e579	-1.147628
81	0xbeb34b4c	-0.35018384
82	0xbeb349fb	-0.3501738
83	0x3ecd4b2e	0.4009642
84	0x3c5efbe6	0.013609862
85	0x3c77b2bb	0.015118296
86	0x40366885	2.8501294
87	0x3ea04ebc	0.3131007
88	0x3e3a882b	0.18216006
89	0xbcd14586	-0.025545847
90	0xbf98da80	-1.1941681
91	0x3ea56efc	0.32311237
92	0x3e99d77a	0.30047208
93	0x3f337402	0.7009889
94	0xbd98d82a	-0.07463105
95	0x3f09fad8	0.5389838
96	0xbe18bc1e	-0.14915511
97	0x3d98a52b	0.07453378
98	0x40132331	2.299023
99	0x3e67a8db	0.22623007
100	0x3dbc7839	0.09202618
101	0xbe18870c	-0.14895266
102	0xbd2441a6	-0.04010167
103	0xbd924772	-0.07142533
104	0xbd1aee9d	-0.037825216
105	0xbce29eaa	-0.027663548
106	0xc03883e2	-2.8830495
107	0xbe03f2ae	-0.12885544
108	0x3b86b8bc	0.0041113775
109	0xbec3ba4a	-0.38228065
110	0xbf1b226a	-0.60599387
111	0x3d6cec7e	0.057842724
112	0x3df5ecff	0.12008094
113	0xbea352b4	-0.31899035
114	0xbf0002b1	-0.50004107
115	0x3d5a750f	0.053334292
116	0x3dcd1590	0.10013878
117	0x3eb1ae4b	0.34703287
118	0x3f4cdebe	0.8002738
119	0x3e8e31b7	0.27772304
120	0x3f5bc38e	0.8584527
121	0xbd92b5a0	-0.071635485
122	0x3f8abad1	1.0838262
123	0x3c42d015	0.011890431
124	0x3ca84c91	0.020544322
125	0xbbd211fb	-0.006410835
126	0x403a10f3	2.9072845
127	0x3deb3c59	0.1148612
128	0x3cb65d47	0.022261275
129	0x3eb10910	0.34577227
130	0xbf2999f1	-0.6625052
131	0x3e99a8c8	0.30011582
132	0x3e119a32	0.14218977
133	0xbda30497	-0.0795986
134	0x3ec9b33a	0.39394552
135	0x3c87d4a2	0.016580883
136	0x3e978f22	0.2960139
137	0x3e8f9dc5	0.28050056
138	0x3f7c8171	0.9863501
139	0x3ec2f9cc	0.38081205
140	0x3eeab4aa	0.4584096
141	0xbeb14b8f	-0.3462796
142	0x3f736a65	0.9508422
143	0xbdfc4321	-0.12317491
144	0xbf06243c	-0.5239904
145	0xbd8e6d39	-0.06954426
146	0xbf85e655	-1.0460917
147	0x3d1560c4	0.036469236
148	0xbdcbf515	-0.09958855
149	0x3e1173a8	0.14204276
150	0xbe6fce01	-0.23418428
151	0x3dff13d4	0.12454954
152	0xbd0c5fdb	-0.034271102
153	0xbc4f0a3a	-0.012636716
154	0xc0236a01	-2.553345
155	0xbe960d8b	-0.29307207
156	0x3ef8880a	0.4854129
157	0x3e0b203e	0.13586518
158	0x3f071933	0.52772826
159	0x3e9f74e9	0.31143883
160	0x3d6dc01e	0.058044545
161	0x3b883b22	0.00415744
162	0x3fa65bc4	1.2996755
163	0xbf46985f	-0.7757625
164	0x3e9e390a	0.30902892
165	0xbe3c3df1	-0.18383004
166	0xbf161df9	-0.58639485
167	0xbd1648b6	-0.036690436
168	0x3f3409d8	0.7032752
169	0x3d1f9378	0.038958997
170	0x3c729877	0.014806858
171	0x3d8e1e27	0.06939345
172	0xbe8d9feb	-0.2766107
173	0x3d014600	0.031560898
174	0xbf80cfcf	-1.0063418
175	0xbefc71a3	-0.49305448
176	0xbe17a204	-0.14807898
177	0x3e13f479	0.14448728
178	0x3f1772a8	0.59159327
179	0xbeefe603	-0.46855173
180	0x3e6901c1	0.22754575
181	0xbe4fc06d	-0.20288248
182	0xbfa71653	-1.3053688
183	0x3ec31f47	0.381098
184	0x3dfd2c5a	0.12361975
185	0x3ea70310	0.32619524
186	0x3fb5e3a9	1.4210101
187	0xbe745126	-0.2385908
188	0xbcf3bf88	-0.029754415
189	0xbce50288	-0.027955309
190	0x3f2ef2f7	0.68339485
191	0xbe41ad50	-0.1891377
192	0xbcc33d56	-0.023832958
193	0xbc5104f5	-0.0127575295
194	0xc030d3aa	-2.762919
195	0xbe15a90a	-0.14615265
196	0xbbc953fe	-0.006144046
197	0xbcaeee00	-0.021353722
198	0xc04912ae	-3.141765
199	0xbea98849	-0.3311179
200	0xbee48350	-0.44631433
201	0xbe9e5052	-0.30920655
202	0xbf22998e	-0.63515556
203	0xbd5e788d	-0.054314185
204	0xbe065e6b	-0.13121955
205	0x3e1729a3	0.14761977
206	0x3eea3bb1	0.45748666
207	0x3e9a86e9	0.30181053
208	0xbf521c98	-0.8207488
209	0xbc75cec9	-0.015002915
210	0xbf1aff01	-0.60545355
211	0xbf340240	-0.70315933
212	0x3ea38189	0.31934765
213	0x3f08f0db	0.53492516
214	0x3f49d4ed	0.78840524
215	0x3eb6e461	0.35721114
216	0x3ef63785	0.48089233
217	0x3de3bafe	0.1111965
218	0xbf2baf17	-0.6706404
219	0x3af073bd	0.001834504
220	0x3d10650c	0.035252616
221	0x3f07042c	0.5274074
222	0x3d6d3c61	0.05791891
223	0x3ea46ac6	0.32112712
224	0xbe9b26b8	-0.30302978
225	0x3d3d6204	0.046236053
226	0x3ff0a565	1.8800474
227	0x3f351512	0.70735276
228	0x3eba1e9b	0.36351475
229	0xbe13aaa4	-0.14420563
230	0x3fd978d8	1.6990004
231	0xbf17ea19	-0.5934158
232	0xbf36637a	-0.7124554
233	0xbd8ac566	-0.06775932
234	0xbe046f5c	-0.12933105
235	0x3dd91831	0.10600317
236	0xbbe6d019	-0.00704385
237	0x3d94ea27	0.072712235
238	0x3f951b54	1.1648965
239	0x3e56ec64	0.20988613
240	0x3de9a5ad	0.11408553
241	0xbea0f282	-0.3143502
242	0xbf14fd6e	-0.58199203
243	0xbebd9ca3	-0.37033567
244	0x3dfb1073	0.12258997
245	0x3e9e0e87	0.30870458
246	0x3f37f81c	0.7186296
247	0x3e962f82	0.2933312
248	0x3c938c2a	0.018011171
249	0x3db01f90	0.0859977
250	0xbffbac8a	-1.966203
251	0xbebe32e1	-0.37148193
252	0xbdef2ca9	-0.1167844
253	0x3e1c5d92	0.15270069
254	0xbfc09b0f	-1.504732
255	0x3f5354a8	0.8255105

fc1.bias f4 [128]
0	0xbf68b151	-0.90895563
1	0xbea5c471	-0.32376435
2	0x3f0536d1	0.5203677
3	0xbf1409d8	-0.5782752
4	0xbf22c202	-0.6357728
5	0xbf29d8cd	-0.66346437
6	0x3eaa748c	0.33292043
7	0x3f0a77fb	0.54089326
8	0xbed492e6	-0.41518325
9	0x3d6f4c89	0.0584226
10	0xbf9196ba	-1.1374123
11	0x3e156733	0.14590149
12	0xbf67ec86	-0.9059528
13	0x3ed53057	0.41638443
14	0x3e76fda5	0.24120195
15	0xbf96c17c	-1.1777797
16	0x3e7e0f09	0.24810423
17	0xbea8c9bc	-0.3296641
18	0x3ee4a00e	0.44653362
19	0x3e329f39	0.17443551
20	0x3d3f6b26	0.046733044
21	0xbf0f597e	-0.5599593
22	0x3e393757	0.18087517
23	0xbe2e8e94	-0.17046577
24	0xbf0abe07	-0.5419621
25	0xbee1459b	-0.43998417
26	0xbef78a5d	-0.4834775
27	0x3eba2a53	0.36360416
28	0xbe4ead1b	-0.20183222
29	0xbe289675	-0.16463645
30	0xbed5d2f6	-0.41762513
31	0xbf0a8d07	-0.5412144
32	0x3dd31da8	0.10308391
33	0x3eea615c	0.45777404
34	0xbf3f6987	-0.74770397
35	0x3d862a01	0.0655098
36	0xbf3fdbb7	-0.74944633
37	0xbe947c2e	-0.29000992
38	0xbf014ecc	-0.5051086
39	0xbd8f05c0	-0.069835186
40	0xbe2e75ca	-0.1703712
41	0x3f1e7e8f	0.61911863
42	0xbe3295c1	-0.17439939
43	0x3e6784d5	0.22609265
44	0xbf0922be	-0.5356864
45	0xbeaa04b1	-0.33206704
46	0xbd95bb93	-0.073111676
47	0x3e85c68d	0.26128045
48	0xbef1fd86	-0.47263736
49	0xbf28b5aa	-0.659022
50	0xbf8a35b2	-1.0797637
51	0x3f05886f	0.52161306
52	0xbed77156	-0.42078656
53	0xbf43d569	-0.76497513
54	0xbedd7d1e	-0.4325952
55	0xbe6fb77b	-0.23409836
56	0xbf749a2f	-0.95547765
57	0xbac4f0f0	-0.0015025418
58	0xbd5868fa	-0.05283449
59	0x3ebc1450	0.36734247
60	0x3eb0ce99	0.34532622
61	0xbf116362	-0.5679227
62	0xbf79e562	-0.97615635
63	0x3df0f655	0.11765734
64	0xbf04e478	-0.51911116
65	0xbf58d38b	-0.8469779
66	0xbf4355ac	-0.763026
67	0xbe44bd02	-0.19212726
68	0x3d4d459e	0.05011522
69	0xbd95d59b	-0.07316133
70	0x3e176b5d	0.1478705
71	0xbf78e970	-0.972312
72	0xbe276e32	-0.1635063
73	0xbf220102	-0.6328279
74	0xbf0e568a	-0.556008
75	0x3f0676f0	0.52525234
76	0x3f3b9126	0.73268354
77	0xbe815a77	-0.25264332
78	0xbf022b6c	-0.50847507
79	0xbefd5375	-0.49477735
80	0x3ef0089f	0.46881577
81	0x3da19519	0.07889766
82	0x3ef16b3b	0.47152123
83	0xbde67d89	-0.11254413
84	0xbec41c89	-0.3830302
85	0xbf6b2b36	-0.9186281
86	0x3f28de8b	0.65964574
87	0xbf5c3d97	-0.8603148
88	0x3f214224	0.6299155
89	0xbf844d4f	-1.0336093
90	0x3ea257e3	0.31707677
91	0xbe3a7338	-0.18208015
92	0x3e793f7d	0.24340625
93	0x3f132cc3	0.57490176
94	0x3cfc2e62	0.030783836
95	0xbf1564e6	-0.58357084
96	0xbf17a430	-0.59234905
97	0x3de77749	0.11302049
98	0x3f0aa505	0.5415805
99	0xbe9cf525	-0.3065578
100	0x3ef3111b	0.47473988
101	0x3d732d8b	0.059369605
102	0x3e9ac97b	0.30231842
103	0xbe11615f	-0.141973
104	0x3eea5709	0.45769528
105	0xbde85549	-0.11344392
106	0x3f138038	0.5761752
107	0xbf0ce353	-0.5503437
108	0xbf482080	-0.7817459
109	0x3e284d6a	0.16435781
110	0x3c92b8c1	0.017910363
111	0xbecd5efb	-0.40111527
112	0x3e52fc87	0.20604144
113	0xbf3c8939	-0.73646885
114	0x3daff67f	0.08591937
115	0xbedfbec0	-0.43700218
116	0x3de78e56	0.11306445
117	0xbf1eabe0	-0.6198101
118	0xbee6279d	-0.44952098
119	0x3f21611b	0.63038796
120	0x3e8c3de1	0.2739096
121	0x3ea34771	0.31890443
122	0x3e722f7d	0.23650928
123	0xbf07f891	-0.5311366
124	0x3ebefab8	0.37300658
125	0x3ede91dc	0.43470657
126	0x3f289767	0.6585602
127	0xbd493a79	-0.04912803

fc2.weight f4 [128, 128]
0	0xbfaa16c2	-1.3288195
1	0x3e9883d3	0.29788074
2	0x3dce5c39	0.10076184
3	0x3e5a04a9	0.2129084
4	0xc082f7d5	-4.092753
5	0xc0c08a1b	-6.0168586
6	0x3e274720	0.16335726
7	0x3e63c8cd	0.22244568
8	0x3c3110de	0.010807244
9	0xba7d97d6	-0.00096738094
10	0xc0239923	-2.5562217
11	0xbc75f352	-0.015011625
12	0xbd595eac	-0.0530688
13	0x3d6f40cf	0.058411416
14	0x3dfebf06	0.124387786
15	0xbd9e4dca	-0.07729681
16	0x3e021fe1	0.12707473
17	0xbebce1ce	-0.36891025
18	0x3df3b32f	0.11899411
19	0x3deb932e	0.11502682
20	0xbd975496	-0.0738918
21	0xbf74b000	-0.95581055
22	0x392c3584	0.00016423134
23	0x3e0b5671	0.13607194
24	0xc03cec00	-2.9519043
25	0xbc87b769	-0.016566949
26	0xc029b91e	-2.6519237
27	0xbcc30c72	-0.023809645
28	0xbdb76da2	-0.08956458
29	0x3d5b2465	0.053501505
30	0xbde1ef5d	-0.11031983
31	0xc02885bb	-2.6331623
32	0x3e3d2c49	0.18473925
33	0x3df1bc99	0.1180355
34	0xbe65bf11	-0.22436167
35	0x3e01ce75	0.12676413
36	0xbe579107	-0.21051417
37	0x3dab4cf3	0.08364286
38	0xbfc3137d	-1.5240322
39	0x3c16adc1	0.0091967
40	0x3e315cc9	0.17320551
41	0x3e61b39d	0.22041173
42	0x3e4f5c70	0.20250106
43	0xbe447603	-0.19185643
44	0x3c1a7735	0.009427835
45	0xbd842bd7	-0.06453674
46	0xbd16180c	-0.036644027
47	0x3d8e539e	0.069495425
48	0xbf9b8f54	-1.2153115
49	0xbf90b83a	-1.1306221
50	0xbfa0a8e3	-1.255154
51	0x3de38456	0.111092255
52	0xbe02c466	-0.12770233
53	0xbf30eb88	-0.6910939
54	0xbf1d09fd	-0.61343366
55	0xbc129626	-0.008946931
56	0xbd44a013	-0.04800422
57	0xbd58b417	-0.052906122
58	0x3e60ea2f	0.21964334
59	0x3e15f07b	0.14642517
60	0x3dc89819	0.09794635
61	0x3d864aac	0.06557211
62	0xbf3e3edd	-0.7431467
63	0x3de2c1af	0.110720985
64	0xc10d0124	-8.812778
65	0xbe306cd4	-0.17229015
66	0xbec18a3e	-0.37800783
67	0x3c8150d2	0.015785608
68	0xbe2b9c29	-0.16758789
69	0xbdd0e887	-0.10200601
70	0x3dacddd2	0.08440746
71	0xbef1b365	-0.4720718
72	0xbdd20fcc	-0.10256919
73	0xbf19254f	-0.59822553
74	0xbf80a957	-1.0051678
75	0x3dd6316d	0.10458646
76	0x3e7b00d8	0.2451204
77	0x3e211c6a	0.15733495
78	0x3c122630	0.008920237
79	0xbfed708d	-1.8549973
80	0x3d509772	0.05092568
81	0xbe10c0f6	-0.14136109
82	0x3e25c076	0.161867
83	0xbd56e2dd	-0.052462447
84	0xbdfea3d0	-0.124335885
85	0xbf146969	-0.57973343
86	0x3e343735	0.17599185
87	0xbed672d4	-0.41884482
88	0x3e65a1da	0.22425023
89	0xbf7729bb	-0.9654805
90	0xbd3961f3	-0.045259427
91	0xbefa75a1	-0.4891787
92	0xbd1889b2	-0.03724069
93	0x3e58520f	0.21125053
94	0xbb8f638f	-0.004375882
95	0xc0195ae8	-2.3961735
96	0xbf4244ce	-0.7588624
97	0x3c83938b	0.016061565
98	0x3d6d1c98	0.057888597
99	0xbdc883af	-0.09790742
100	0x3dcd17d7	0.10014313
101	0x3dd876fe	0.10569571
102	0x3e16ff84	0.14745909
103	0xbdad7c9f	-0.08471035
104	0x3dcca9db	0.09993335
105	0x3deb2ace	0.11482774
106	0x3decaf59	0.115568824
107	0xc0068619	-2.1019347
108	0xbf2d4087	-0.67676586
109	0x3ddbb988	0.10728747
110	0xbe0cedb0	-0.13762546
111	0xbe0c2b45	-0.13688381
112	0x3d95da03	0.07316973
113	0x3e8d1449	0.2755454
114	0xbcf0fcbe	-0.029417392
115	0x3d929b81	0.07158566
116	0x3e3143b4	0.17310983
117	0xbfd75889	-1.6823894
118	0xbf8335d2	-1.02508
119	0x3e76daef	0.24106954
120	0x3e2da6b0	0.16958117
121	0x3db1c41d	0.08679984
122	0x3e2b6bc6	0.16740331
123	0xc0dfc41e	-6.99269
124	0x3d807111	0.06271566
125	0x3dbec34f	0.09314596
126	0x3e2dffc4	0.16992098
127	0xbdc13abc	-0.09435031
128	0xbf216560	-0.6304531
129	0xbf281203	-0.65652484
130	0x3e39ff2f	0.18163751
131	0x3e941e12	0.28929192
132	0xc10e69d4	-8.900837
133	0xc11a0300	-9.625732
134	0x3e162b6a	0.14664999
135	0x3e440d5a	0.19145718
136	0x3dad1f69	0.08453257
137	0xbeb565ab	-0.3542913
138	0xbff644ff	-1.9239806
139	0x3e22b641	0.15889837
140	0xbfbdb2b3	-1.482016
141	0x3df97e88	0.12182337
142	0x3dc612c8	0.09671551
143	0x3e708db2	0.23491552
144	0x3e425708	0.18978512
145	0xbebb7bc3	-0.3661786
146	0x3e57feab	0.21093242
147	0x3ba7bc71	0.0051188995
148	0xbe1fa7f9	-0.1559142
149	0xc0efcac2	-7.4935007
150	0x3cfd2d09	0.030905263
151	0x3e3605b5	0.17775615
152	0xc09ccddb	-4.900129
153	0xbd4bbc74	-0.04974027
154	0xc04032c1	-3.0030978
155	0x3db13c82	0.08654119
156	0xbda0e8a7	-0.07856875
157	0xbdba634a	-0.09100969
158	0xbf0d5412	-0.55206406
159	0xc118b486	-9.544073
160	0x3d4abd8c	0.049497172
161	0x3e0757f3	0.13217144
162	0xbee6e7da	-0.45098764
163	0x3dcb4f91	0.099272855
164	0xbe3966a4	-0.1810556
165	0x3d9a08d1	0.07521213
166	0xbff41f9a	-1.9072144
167	0x3c194385	0.009354477
168	0x3e2a2503	0.16615681
169	0x3e8e114b	0.27747568
170	0x3e6f544a	0.23371997
171	0xbe7fb814	-0.24972564
172	0xbd84f56d	-0.06492124
173	0x3d1cb849	0.038261686
174	0xbc4f990e	-0.012670768
175	0x3e5139c5	0.20432194
176	0xbfbe6023	-1.4873089
177	0xbfb7c2ba	-1.4356301
178	0xbf94b392	-1.16173
179	0x3e5423f8	0.20716846
180	0xbe74ae1c	-0.23894542
181	0xbf0230b5	-0.5085557
182	0xbf6e37a3	-0.93053645
183	0x3d4cef2f	0.05003279
184	0xc009cacf	-2.1530035
185	0x3e0ec87a	0.13943663
186	0x3e90a33e	0.28249544
187	0x3e67f701	0.22652818
188	0x3dd4e41b	0.1039507
189	0xbe701e3b	-0.23449032
190	0xbf7b3928	-0.9813409
191	0xbc0fa50b	-0.008767377
192	0xc126c1ab	-10.422282
193	0xbf1a5d76	-0.6029886
194	0x3eb0782f	0.34466693
195	0xbe6b15fc	-0.22957605
196	0xbde9382c	-0.11387667
197	0x3d702987	0.058633354
198	0x3e0d2a30	0.13785625
199	0xbf0e0d7e	-0.5548934
200	0xbe82366b	-0.25432143
201	0xbf5e7622	-0.86899006
202	0xc109157a	-8.567743
203	0x3e85c337	0.261255
204	0x3e9a491e	0.3013391
205	0x3c73e2c7	0.014885611
206	0xbedb701f	-0.4285898
207	0xc0f77c9d	-7.7339616
208	0x3e2bb63e	0.16768739
209	0xbe080679	-0.13283719
210	0x3e80d206	0.25160235
211	0x3df60219	0.12012119
212	0xbeeae102	-0.45874792
213	0xbfea1eaa	-1.8290608
214	0x3e88b042	0.26696974
215	0xbea55a28	-0.32295346
216	0x3e995cf0	0.29953718
217	0xbeea94a2	-0.45816523
218	0x3d5e1824	0.05422224
219	0xbf1d9431	-0.6155425
220	0x3cb6e9c3	0.022328263
221	0x3e5d945a	0.21638623
222	0xbc00ccf4	-0.007861365
223	0xc119b4b2	-9.606615
224	0xbf8b801f	-1.0898474
225	0xbbcaafb8	-0.006185498
226	0x3e36b6de	0.17843196
227	0xbec9093d	-0.3926486
228	0x3e67e4fd	0.22645946
229	0x3cdd34cf	0.02700272
230	0x3e19fe0e	0.1503832
231	0xbdbc562f	-0.09196126
232	0x3e277589	0.1635343
233	0x3d0103bb	0.0314977
234	0x3e076f38	0.1322602
235	0xc1220e2d	-10.128461
236	0xbed318ed	-0.41229954
237	0x3e39866a	0.18117681
238	0x3dd26522	0.10273196
239	0xbe76a546	-0.24086484
240	0x3e782a0f	0.24234794
241	0xbe639bd1	-0.22227408
242	0x3e25cd3e	0.16191575
243	0xc09a8a92	-4.8294153
244	0xbca0dd61	-0.019636812
245	0xc031a5a1	-2.7757342
246	0xc0934e65	-4.6033196
247	0x3e7ebc71	0.24876572
248	0x3dc5110a	0.096223906
249	0x3e848508	0.25882745
250	0x3e7627e0	0.24038649
251	0xc0d69bb8	-6.7065086
252	0x3e9e588f	0.3092694
253	0x3e8b2d54	0.2718302
254	0x3e3daa1a	0.1852192
255	0xbe00c0b4	-0.1257351

fc2.bias f4 [128]
0	0x3e856946	0.2605688
1	0x3e83ea0a	0.25764495
2	0xbc186db2	-0.009303497
3	0x3e8241dd	0.25440875
4	0xbdfa434a	-0.122198656
5	0xbdea134c	-0.11429462
6	0xbdc962f7	-0.09833329
7	0x3d36ca0f	0.04462629
8	0xbd4dadec	-0.050214693
9	0x3e8be168	0.2732041
10	0x3db36a13	0.087604664
11	0x3e238a93	0.1597083
12	0xbdc74bf7	-0.09731286
13	0xbe06aa37	-0.1315087
14	0xbcddfa9b	-0.027097037
15	0x3cbd59bc	0.023114078
16	0xbe3fce78	-0.18731105
17	0x3e9c3135	0.30506292
18	0x3ea846bb	0.32866463
19	0x3e8e9546	0.27848262
20	0xbdaf76c2	-0.08567573
21	0xbd8db8ea	-0.06920035
22	0x3e505928	0.2034651
23	0x3cebd792	0.028789315
24	0xbd563210	-0.052293837
25	0xbd2d15f6	-0.04225727
26	0x3e2d02b4	0.16895562
27	0xbc777c7a	-0.015105361
28	0x3e9abfd0	0.30224466
29	0xbe1fadf3	-0.155937
30	0x3d4c1729	0.049826775
31	0x3e231cbc	0.1592893
32	0x3e8c99b4	0.27461016
33	0x3e49c1f9	0.19702901
34	0x3e82d76c	0.2555498
35	0xbd850f93	-0.06497111
36	0x3e83645d	0.2566251
37	0xbd4ee37c	-0.050509915
38	0xbca8f728	-0.020625666
39	0xbd72872d	-0.059210945
40	0xbdadca58	-0.0848586
41	0x3e6a0f69	0.22857441
42	0xbdb7fee9	-0.08984167
43	0x3e353569	0.17696156
44	0x3e311721	0.17293979
45	0x3d158304	0.0365019
46	0x3e9d6fb1	0.30749276
47	0xbda4cfce	-0.08047448
48	0xbde22313	-0.11041846
49	0x3c242952	0.010019617
50	0xbd86f129	-0.065889664
51	0xbe224d14	-0.15849715
52	0xbd81bd82	-0.06334974
53	0x3e8e812c	0.27832925
54	0x3eaabbf9	0.33346537
55	0x3c818cfc	0.015814297
56	0x3d974bec	0.07387528
57	0xbd35d171	-0.044389192
58	0xbd76619c	-0.06015168
59	0xbddae96d	-0.10689054
60	0xbd08daa9	-0.033411656
61	0x3e8e41d3	0.27784595
62	0xbe86558e	-0.26237148
63	0x3e85666f	0.26054713
64	0x3e50843a	0.2036294
65	0xbde0ad4b	-0.10970553
66	0x3e4627be	0.19351098
67	0xbd927ef4	-0.07153121
68	0xbd5e9726	-0.054343365
69	0x3eb5daa2	0.35518366
70	0xbd52c0b8	-0.051453322
71	0xbd41a84e	-0.04727965
72	0x3eaec73c	0.3413638
73	0x3e779592	0.2417815
74	0xbd6c9f7a	-0.057769276
75	0xbe29609c	-0.1654076
76	0x3e734f15	0.23760636
77	0xbc9f6c06	-0.01946069
78	0x3c2b0088	0.010437138
79	0xbdd669ac	-0.10469374
80	0x3e7fa34d	0.24964638
81	0x3e3cbb44	0.18430811
82	0x3e7633ca	0.24043193
83	0xbd952ca5	-0.07283906
84	0x3d0548b5	0.032540042
85	0x3e30d5f9	0.17269124
86	0xbcb42cee	-0.02199408
87	0x3d1bd722	0.038046964
88	0x3ea12623	0.31474409
89	0x3e571565	0.21004255
90	0x3e8d8c61	0.27646163
91	0xbdd34e4b	-0.103176676
92	0xbde95259	-0.1139266
93	0xbda30485	-0.079598464
94	0xbb929243	-0.004473002
95	0x3e48e0a2	0.1961694
96	0x3ea078a6	0.31342047
97	0x3e410e21	0.18853046
98	0x3c230d26	0.009951865
99	0x3c663e7e	0.014052985
100	0x3e766369	0.2406136
101	0x3e82011c	0.2539147
102	0x3c9c968a	0.019114751
103	0x3e8505f1	0.25981095
104	0x3e388817	0.18020664
105	0x3e643182	0.2228451
106	0x3e7bfe70	0.24608779
107	0xbde97f0a	-0.11401184
108	0x3c31967f	0.010839104
109	0x3e8451ab	0.25843558
110	0xbd589616	-0.052877508
111	0x3cad3339	0.021142589
112	0x3e5ddb42	0.21665671
113	0x3eac3de0	0.33640957
114	0xbcdebad9	-0.027188705
115	0xbd9f07bb	-0.07765146
116	0x3e72a667	0.2369629
117	0xbdc94547	-0.09827667
118	0xbcefd12d	-0.029274547
119	0xbd448dcf	-0.0479868
120	0xbde5d65f	-0.11222529
121	0xbd572a6e	-0.0525307
122	0xbdf61b09	-0.12016875
123	0x3ea9b2dd	0.33144274
124	0xbd53f916	-0.05175122
125	0x3d658bc9	0.056041513
126	0xbdf362ad	-0.11884055
127	0x3ea3ac4f	0.319674

fc3.weight f4 [2, 128]
0	0x3f569c21	0.83831984
1	0x4015f1e4	2.3428888
2	0x400b8dba	2.1805253
3	0xbf8a77e8	-1.0817842
4	0x3c37023e	0.011169968
5	0xbb0c70fa	-0.0021429644
6	0x39fb8beb	0.00047978698
7	0xbd7838d7	-0.06060108
8	0xc117aad6	-9.479208
9	0xbf96f387	-1.1793069
10	0x3f7f02ff	0.99613947
11	0xbf4931f8	-0.7859187
12	0xbc9b9d4c	-0.018995903
13	0x3d8a2bd4	0.06746641
14	0xbcf73a33	-0.030179119
15	0x3ba25070	0.0049534366
16	0xc032d560	-2.7942734
17	0x3f50c84a	0.81555617
18	0x3f148a61	0.5802365
19	0xbf1920be	-0.59815586
20	0x3d16f201	0.036851887
21	0x3ca1de18	0.019759223
22	0x3f4a82cd	0.79105836
23	0xbc9c8678	-0.019107088
24	0xbc878f7f	-0.016547916
25	0xbd27e50a	-0.040989913
26	0x3f8bc4b8	1.0919409
27	0x3b07c66d	0.0020717636
28	0xbee54063	-0.44775686
29	0x3f8e4178	1.111373
30	0xbd564317	-0.052310076
31	0xbea05a78	-0.31319022
32	0x3f4315e1	0.7620526
33	0x3d2e7171	0.042588655
34	0x3f83c5fd	1.0294796
35	0x3da2a2e9	0.07941229
36	0x3f0287b6	0.5098833
37	0x3d0c9166	0.03431835
38	0xbd3c6919	-0.045998666
39	0xbcb677e3	-0.022273963
40	0x3a8173a9	0.0009876388
41	0x3fcd6750	1.6047153
42	0xbd38462c	-0.044988796
43	0x3f7b1766	0.9808258
44	0x3f3e63dc	0.74371123
45	0xbf503e08	-0.8134465
46	0x3ff64019	1.9238311
47	0x3c4c981e	0.012487439
48	0xbd925237	-0.071445875
49	0xbd6bc169	-0.057557497
50	0x3d57b6a4	0.052664414
51	0xc03eb00d	-2.9794953
52	0x3cb930c1	0.022606255
53	0xbc8557f5	-0.016277293
54	0x3f611b50	0.879323
55	0xbd5e21bc	-0.05423139
56	0x3f86243e	1.047981
57	0xbb7a4273	-0.003818658
58	0xbca5ad10	-0.020224124
59	0x3cd04c54	0.025427021
60	0x3d187a4f	0.037226018
61	0x3fb9b991	1.4509755
62	0x3ef844ef	0.48490092
63	0x3f48cd93	0.7843868
64	0x3efffd0c	0.49997747
65	0x3cbc8361	0.023011865
66	0x3f4a19e6	0.7894577
67	0x3d8cd378	0.06876272
68	0x3ce4cc39	0.027929412
69	0x400ce726	2.2016082
70	0x3ca60343	0.020265227
71	0x3c5f22db	0.01361915
72	0x3f141420	0.5784321
73	0x3fdf9e89	1.7470256
74	0xbca127f2	-0.019672368
75	0x4060757f	3.5071714
76	0x3ebaab64	0.36458886
77	0x3cc360b6	0.023849826
78	0xbd1b99b1	-0.03798837
79	0x3d0657b2	0.032798477
80	0xbf0653b8	-0.52471495
81	0xbf6fe3e8	-0.9370713
82	0xbf80a06f	-1.004896
83	0xbd6ea5d3	-0.05826361
84	0xbd1aaeac	-0.037764236
85	0x3f7181f0	0.94338894
86	0x3bade7d4	0.005307177
87	0x3da0a4cb	0.07843932
88	0x3fd87268	1.6909914
89	0xbd188c00	-0.03724289
90	0x3ebdf022	0.3709727
91	0x3d6c8ab6	0.057749473
92	0x3d34ef05	0.04417326
93	0xbd7183b6	-0.0589635
94	0x3cccf3ac	0.025018536
95	0x3f81665f	1.0109366
96	0x40042f7d	2.0653985
97	0xbec61c24	-0.38693345
98	0xbd802a9c	-0.06258127
99	0x3e5cd335	0.21564944
100	0x3f8e8a77	1.1136006
101	0x3f74c347	0.9561047
102	0xbd93a7d4	-0.07209745
103	0x3fb871ff	1.4409789
104	0xbf33f285	-0.7029193
105	0x3f5acdd0	0.85470295
106	0x3f0d42fd	0.5518034
107	0xbfeaa015	-1.8330103
108	0xbd3b68a5	-0.045754094
109	0xbf2864ae	-0.65778625
110	0x3d17abd7	0.037029114
111	0x3cfeedb2	0.031119201
112	0x3f7e5f2d	0.99363977
113	0x400040eb	2.0039623
114	0xbcb5730b	-0.022149583
115	0xbc250915	-0.010072966
116	0xbd241773	-0.040061425
117	0xbcd483f2	-0.025941823
118	0xbb13445b	-0.0022471163
119	0xbcf04c97	-0.029333396
120	0x3d0979e7	0.03356352
121	0x3d6c8ea4	0.05775322
122	0xbd0eb4ae	-0.03484028
123	0x3f3f6699	0.74765927
124	0x3d18bf15	0.037291605
125	0xbd8bce4f	-0.068264596
126	0xbc921118	-0.017830417
127	0x3fb6f967	1.4294862
128	0x3f7143ce	0.94244087
129	0xbe43daf4	-0.19126493
130	0xc0b56bdf	-5.669418
131	0x3f571c12	0.84027207
132	0x3b9f8be9	0.0048689735
133	0x3c631964	0.013861034
134	0xbd8a6b1d	-0.067587115
135	0xbd8615ee	-0.065471515
136	0xbf5dbbdc	-0.86614776
137	0x3f730952	0.94936097
138	0x3c77e561	0.015130372
139	0x3f59044f	0.847722
140	0x3cdce9ae	0.026966896
141	0xbd81e581	-0.063426025
142	0x3cfd1f83	0.030898815
143	0xbd406f71	-0.04698128
144	0x4078e733	3.8891113
145	0x3f82d472	1.0221083
146	0x3f860a4c	1.0471892
147	0x3f70ea9e	0.94108
148	0xbd795d33	-0.060879897
149	0x3d73c8d0	0.05951768
150	0xbe4397ee	-0.19100925
151	0xbd19ce6d	-0.03755038
152	0x3d34b2a9	0.044115696
153	0xbd7d2680	-0.061804295
154	0x3f3c0dff	0.73458856
155	0x3d02bd02	0.031918533
156	0x401978b5	2.3979924
157	0xc0d37773	-6.608331
158	0x3b81def8	0.0039633475
159	0x3f92a2bd	1.1455914
160	0x3f824f25	1.0180403
161	0x3fab3f92	1.3378775
162	0x3b2fe970	0.002684202
163	0x3cdbae1b	0.026816418
164	0x3ff57bb2	1.9178374
165	0xbcae27c2	-0.021259192
166	0xbbe48616	-0.006973992
167	0xbd00dc68	-0.031460196
168	0x3abb10ab	0.0014271935
169	0xbfa92964	-1.3215756
170	0xbd79d6e4	-0.06099595
171	0x3df6e873	0.12056055
172	0xbe5b765b	-0.21431868
173	0x3ee3fc63	0.44528493
174	0xbe911250	-0.28334284
175	0xbd895fca	-0.067077234
176	0xbce73e07	-0.02822782
177	0xbc899678	-0.016795382
178	0xbc548a96	-0.012972495
179	0xc0a1d574	-5.0573063
180	0xba2ce067	-0.0006594718
181	0x3f9fecf6	1.249419
182	0xbfb72ccd	-1.4310547
183	0xbc6fc82e	-0.014635129
184	0xbef9c120	-0.48780155
185	0xbcb97f1c	-0.022643618
186	0x39875c79	0.00025818104
187	0xbc9dc7ec	-0.01926037
188	0xbd07905e	-0.033096664
189	0x3f1b2193	0.60598105
190	0x3efcd982	0.49384695
191	0x3f7ceea5	0.9880164
192	0x3f9c6595	1.22185
193	0xbd9847c5	-0.07435564
194	0x3f807b28	1.0037584
195	0x3cb1da6c	0.021710597
196	0xbce15a26	-0.027508806
197	0x3ca5e5ae	0.020251121
198	0xbd88513e	-0.06656121
199	0xbd9e08d6	-0.07716529
200	0x3f8b10bf	1.0864486
201	0xbfa19b28	-1.2625475
202	0x3d10c711	0.035346095
203	0xc0fd1e50	-7.9099503
204	0x3fa324e6	1.2745636
205	0xbbc62b38	-0.0060476325
206	0x3d69d107	0.05708411
207	0x3cd82c0f	0.026388196
208	0x40104d83	2.254731
209	0x3f32e321	0.6987782
210	0x3f735cab	0.95063275
211	0x3cbd384d	0.023098135
212	0xbc92f3ca	-0.017938513
213	0xbe406aa6	-0.18790683
214	0x3c9a3503	0.018824106
215	0xbd4f7e91	-0.050657813
216	0x3db03cbd	0.08605335
217	0x3fa66a05	1.3001105
218	0x40040a86	2.0631423
219	0xbc395836	-0.011312535
220	0xbd31c615	-0.043401796
221	0x3ce1807c	0.027527086
222	0x3da0b9b0	0.07847917
223	0xbd24965e	-0.040182464
224	0xbf10ae03	-0.5651552
225	0x3f92992a	1.1452992
226	0xbcbcbfa1	-0.023040595
227	0x3c2463b7	0.0100335395
228	0x3d128890	0.035774767
229	0x3d20ceb6	0.039259635
230	0x3c29a774	0.010354865
231	0xbe284a87	-0.1643468
232	0x3f6a734d	0.91582185
233	0xc016edf4	-2.3582735
234	0x3f8b5845	1.0886313
235	0xc035bd8c	-2.839694
236	0xbd89a04b	-0.067200266
237	0x4009cf54	2.1532793
238	0xbd9827a1	-0.074294336
239	0x3d5c0f9a	0.053725816
240	0x3d33c661	0.04389036
241	0x3ee39b47	0.44454405
242	0x3cdd253d	0.026995296
243	0xbc3b8c28	-0.01144699
244	0x3fa6401d	1.2988316
245	0x3d7d202e	0.061798267
246	0x3b724afd	0.0036970966
247	0x3c56b0f1	0.01310371
248	0x3b5e901e	0.0033960412
249	0xbcdcb1f2	-0.02694032
250	0x3c6f55b4	0.014607836
251	0x3f8506e4	1.0392728
252	0x3b975ee9	0.0046194685
253	0xbd13380f	-0.035942134
254	0xbd33fe03	-0.043943416
255	0x3e331d2a	0.17491594

fc3.bias f4 [2]
0	0x3e1c341c	0.15254253
1	0xbdab844d	-0.08374844
