lunarlander_dqn.pth (torch, 75416 bytes, 6 tensors)

fc1.weight f4 [128, 8]
00000000: 42f5 a2bd 06d4 91be 5594 993d e5a6 0a3e
00000010: 5127 1ebf 041b eabf cba9 a03e 4ee9 523e
00000020: a0cb df3d 29c4 a0be 0e43 35bf c580 6bbe
00000030: 9905 cc3f e067 023f 2631 4d3f 336e 083e
00000040: 6456 893e 56d0 99be 8fa5 2cbd 3c6d c4bf
00000050: 9eb9 253e 898c 1cbd de17 b5bd bb72 e63d
00000060: f827 823e f474 fd3e 972d 14bf 0620 37bf
00000070: 6bb9 8cbf 7ba6 283f 5fb7 d5bc 4a75 01bf
00000080: 71b3 72be 56e8 44be adc8 5e3f 4834 56bf
00000090: 6f38 01be 9a16 c4bf 80d0 e1bf db11 933d
000000a0: b9a3 9e3f c161 65bf 8baa 163f 02fb a9bc
000000b0: d787 63bf 8d5c c2be 4864 f63e 6881 39bf
000000c0: e629 38bf 9418 01bf 2a3f 9cbe ebc8 43bf
000000d0: ab81 753e 8e34 5b3e 59a2 df3e f458 243e
000000e0: 374d 433f a790 d1be d17f 443e 1d52 db3d
000000f0: 2f1a eebf acc9 0cbf a169 3bbf b167 413e
00000100: a355 3ebf 0790 6c3f eec4 753f 353d 403f
00000110: e1fe 793d f4b0 3abf 1287 9fbc 3167 a3bd
00000120: a2d0 a23e 2870 60bf b769 113f 0de5 05bf
00000130: 720d dd3e 9c3e 2abe 1830 8d3e ceda abbd
00000140: 0a29 6f3e bffa db3e df75 67bf d322 a83f
00000150: fce8 193e 686d 00be 90d6 093c 9178 763d
00000160: c707 a2be b2af f9bf 4d49 d8be dcd5 0cbf
00000170: 924d be3e 185b 3bbf 05e3 c53e 3b62 28be
00000180: b6ba a73d 432c 1abf 6262 0f3f cd73 55bf
00000190: e907 5fbf 5c23 95bf bcc0 b6bf fd34 13bd
000001a0: ad4c 0c3f 7bac 53c0 9e4f 61be 8612 673e
000001b0: e84d d7be 84ba d13d a08c b73e b0f7 56be
000001c0: d309 063f f5c1 63bf 86bd 20bf 9a19 18bf
000001d0: 9df1 833f 363e 183e bdd8 523e 40e3 723d
000001e0: a4fc 1bbe 6f2b 14bf 70f6 c13e 86ce 57be
000001f0: d630 3cbe 3a94 aabf ff4c d8bf cb90 953c
00000200: acd5 0f3f 84a8 8dbf 9cec cc3e 9368 f8be
00000210: 1eae cf3d 356d e5be 28ad f43e 43e3 593e
00000220: 14b3 2b3f 7e6f 49be 83d2 90be 77d1 f2be
00000230: 65ea 93be 785b a7bf a660 c4be 50de bc3e
00000240: 27cb 29bf b293 fc3e f211 443f a819 ad3d
00000250: 2d4c 1b3f b87d 83bf 4748 943c d8a3 18bf
00000260: 0ade 09be 961c e9bf bf8b abbe 3aae 90be
00000270: 2178 c7bd 7b5b b2bf cc21 4abf d4bf cebe
00000280: 6cc7 0d3f 8e11 a5bd a7c6 253f c2d8 3f3f
00000290: 14b0 943f da7a 693f 7f2f e4bc 19c6 59be
000002a0: 36fb 05bf 62de 29bf dbad c4bd 9367 483e
000002b0: 40ea 063f 3d84 703f 8fa7 803e ffa4 7fbe
000002c0: 10c0 2e3f f760 cfbe a0d5 53be 0c5f af3d
000002d0: 5c0d 973f 1554 b23d 07f6 453b a7af 3b3f
000002e0: 8ce7 7cbf b0ef cabf 02c4 23be 29dd 0abf
000002f0: ff69 b63c f62e 823b badb 323e 8275 ee3e
00000300: 5ab7 a53f 906f c7bf 78fb a53e 98c7 28bd
00000310: 00a0 1f3f 5ac9 9dbf a364 16bf de39 8e3e
00000320: 098b ba3e 6631 5bc0 593c 183f ec2a 58bf
00000330: 6a04 9d3e 183a 27bf ded3 0bbe a88d 0dbf
00000340: be3f 9dbe 2909 3cbf c548 c03e 295e 3bbf
00000350: 1da8 11be 8aa5 08bf 4ccd b8bf 1fe9 31be
00000360: 1fb3 783d e1fe 8cbf 50f3 e9be 7b3a 90be
00000370: c3c5 0d3f c018 bfbe 97b8 183f 7709 f23c
00000380: 36dd 6abe 4142 bc3c d6eb a3bf f552 e23f
00000390: 9e60 ef3f 9992 9dbe b8ef 973e f59f 8d3e
000003a0: 1b10 80bf bdbc 823f 8d09 f03e 462d f7bc
000003b0: a9bd 163f f73b 9bbd add1 1c3f 2601 4cbe
000003c0: 0b76 a83e df8b 033f a1e4 cbbe caf4 2abf
000003d0: 19f5 983f 09ef 26bf 1543 a3be f36b 923c
000003e0: 955a dd3e e65d 003f 5e8d 423f 66f4 6a3f
000003f0: 33aa 65bf fbff 75be f49a 003e a587 a93e
-0.079569355 -0.28482074 0.07498995 0.13540228 -0.6177874 -1.8289495 0.31379542 0.20596811
0.1092751 -0.31399658 -0.7080544 -0.2299834 1.5939208 0.5093975 0.8015312 0.13323288
0.26823723 -0.3004176 -0.042150076 -1.5345836 0.16184089 -0.038219962 -0.08842443 0.11252352
0.2542112 0.4950329 -0.57882065 -0.7153324 -1.0994085 0.6587903 -0.026088415 -0.50569594
-0.23701264 -0.19229254 0.87024957 -0.83673525 -0.12619184 -1.5319397 -1.7641754 0.0718114
1.2393714 -0.89602286 0.5885398 -0.020749573 -0.8887915 -0.37961236 0.48123384 -0.72463083
-0.7193893 -0.5042813 -0.3051694 -0.7647845 0.23975246 0.21406767 0.4367855 0.16049558
0.76289696 -0.40930673 0.19189383 0.10709021 -1.8601741 -0.54995227 -0.7320805 0.18887211
-0.7434942 0.9240727 0.96003616 0.75093395 0.061034087 -0.7292626 -0.019473586 -0.079786666
0.317998 -0.87671137 0.56801933 -0.5230263 0.4317432 -0.16625446 0.27575755 -0.08391343
0.23355499 0.42964742 -0.9041423 1.3135628 0.15030283 -0.12541735 0.008412972 0.060173575
-0.3164656 -1.9506743 -0.42243424 -0.55013824 0.37168556 -0.73185873 0.38649765 -0.16443722
0.08189909 -0.6022379 0.56009495 -0.8337982 -0.87121445 -1.1651416 -1.4277568 -0.035939205
0.548045 -3.3074024 -0.22003028 0.2256566 -0.42051625 0.10240653 0.35849476 -0.20992923
0.5235874 -0.8896783 -0.6278919 -0.59414065 1.030811 0.14867482 0.20590492 0.059298754
-0.15233094 -0.57878774 0.3788333 -0.21074876 -0.18378004 -1.3326485 -1.6898497 0.01825752
0.5618541 -1.1067052 0.4002427 -0.48517284 0.10140632 -0.4480988 0.47788358 0.212781
0.67070127 -0.19671437 -0.28285608 -0.47425434 -0.28889766 -1.3074789 -0.38354987 0.3688836
-0.6632561 0.49331433 0.7658988 0.08452159 0.6066311 -1.0272741 0.01810087 -0.59625006
-0.13463607 -1.8211849 -0.33505055 -0.28257924 -0.0973971 -1.3934168 -0.7895782 -0.40380728
0.5538242 -0.08059989 0.64756244 0.7494012 1.1616235 0.9120308 -0.02785468 -0.21266975
-0.5233644 -0.66354954 -0.09603473 0.1957076 0.5270119 0.9395178 0.25127837 -0.24965285
0.68261814 -0.40503666 -0.2068696 0.08563051 1.1800952 0.087074436 0.0030206458 0.733149
-0.9879081 -1.5854397 -0.1599274 -0.54243714 0.02226734 0.0039728833 0.17466632 0.46574026
1.294658 -1.5580921 0.32418418 -0.041205972 0.62353516 -1.2327073 -0.5874731 0.27778524
0.364342 -3.42489 0.59467083 -0.84440494 0.3066743 -0.6532302 -0.1365504 -0.55294275
-0.30712694 -0.7345148 0.3755552 -0.7319055 -0.14224286 -0.5337759 -1.4437652 -0.17374085
0.0607177 -1.1015283 -0.45693445 -0.28169617 0.55379885 -0.3732357 0.5965666 0.029545529
-0.22935948 0.022980811 -1.2806346 1.7681566 1.870136 -0.30775908 0.29675078 0.276611
-1.0004915 1.0213848 0.46882287 -0.030172955 0.5888315 -0.07579797 0.6125744 -0.19922313
0.3290256 0.513853 -0.39822868 -0.6677977 1.1949798 -0.6520849 -0.31887117 0.01787374
0.4323317 0.5014328 0.7599696 0.9177917 -0.8971283 -0.2402343 0.1255911 0.331113

fc1.bias f4 [128]
00000000: 56de 8ebd 6a2f 3cbe f859 833e 5eb7 5b3e
00000010: 186e 1f3e 6b75 3fbf 0bd4 5dbe c298 a43e
00000020: 6027 fe3e b4c0 47bd b7a4 563f 98bc 16be
00000030: 90ca a7be 427f 113f 5be6 e83d 0f85 c23d
00000040: b86c 4a3e b72b d5be 1f3c 423e 335c b4bd
00000050: c02b 1cbe 07bc 383f 4e36 b33e b6dc 40bd
00000060: 51e6 87be 5e8d 5b3c 410c d9bd 0e6b d7bd
00000070: 4df0 e13e 3c28 023f 51e4 e8be e04c 3c3f
00000080: a421 223d 688f 323c 220e 8f3e a709 e7be
00000090: 52d4 7dbd d54b ac3e 1fff 2a3d 17b2 e43b
000000a0: 9088 35be a61c d73e 10e6 2ebf e10c 203f
000000b0: 9e4d f8bd b339 2c3e 0b9c e23e 5e1f 47be
000000c0: 1c62 b83e 2b26 f03e 2e93 7e3e f5c8 b0be
000000d0: 434a e13e c83e 68be f3dc a83d 97f9 083e
000000e0: bb3b 603e 84a3 123c c2b6 a93e 695c 91bd
000000f0: 56b3 0cbf 6b9b 7fbe b24c c23c 4988 25bf
00000100: 9967 c0bd cedf 113f 5c85 553e d7d4 61be
00000110: d714 dd3d 4e50 a63e 3825 1b3f 21c1 e5be
00000120: 143d 39be 8ede 933d 6b05 943d a36c 0dbf
00000130: 8fb8 76bd 9fb5 383e 3250 c03d e071 773f
00000140: 65ab de3d 5ef2 ce3e 2d3a 8fbe 0d23 f4be
00000150: 74ee 0cbe 9d70 ce3e e22a df3e 38e6 c2be
00000160: 5a48 d0be 69f9 913d 5998 31bf cd5e cc3e
00000170: 06bc 92be 65b4 a43d c2b4 62be 6aaa 52bf
00000180: 0a8b a03d ec16 8a3e 0c0f 0bbe 988c 8cbe
00000190: 8f38 8abe 177c da3c 7ac6 90bc e6b2 eabd
000001a0: 8d3a 043e a472 f1be 3e5a 15be 7e4f 143b
000001b0: a264 f6bd e828 013e f099 91ba 2242 173d
000001c0: b6dd 273e cac9 0e3f e85b aabd 7712 0abe
000001d0: 4a28 27be 3b01 f63d 63ba c5bc 1702 a3be
000001e0: 3068 e8bd daea 093f e0ed cdbe 4f82 d93d
000001f0: 4b5a 493e 9f25 4d3f 797b 703e c8ef edbe
-0.06976001 -0.18377462 0.25654578 0.21456668 0.15569341 -0.7478854 -0.21662919 0.32147795
0.49639416 -0.04876776 0.83845085 -0.1472038 -0.3277173 0.56834805 0.11372062 0.09498035
0.19768035 -0.41634914 0.18968247 -0.08806648 -0.15251064 0.72161907 0.3500237 -0.047085486
-0.26542905 0.013400404 -0.1059804 -0.10518466 0.44128647 0.5084264 -0.45486692 0.735548
0.039582863 0.0108984485 0.2794047 -0.45124552 -0.061970063 0.33651605 0.04174721 0.006979238
-0.17727876 0.42014045 -0.683198 0.6251965 -0.12124179 0.16818886 0.44259676 -0.1944556
0.36012352 0.4690412 0.24860832 -0.34528318 0.4400197 -0.22680199 0.08245268 0.13376461
0.21897785 0.008950118 0.33147246 -0.07097704 -0.54961145 -0.24961631 0.023718212 -0.6466108
-0.0939476 0.56982124 0.20851654 -0.22053848 0.107949905 0.32483143 0.60603666 -0.44873908
-0.18089706 0.07220183 0.07227596 -0.5524389 -0.060234603 0.18038033 0.09390296 0.96658134
0.10872535 0.40419286 -0.27974072 -0.47682992 -0.13762838 0.40320292 0.43587404 -0.38066268
-0.406802 0.07127649 -0.6937309 0.39916077 -0.28659075 0.0804222 -0.22139266 -0.8229128
0.078390196 0.26970613 -0.13579959 -0.27451015 -0.26996276 0.026670499 -0.017672766 -0.114599034
0.1291296 -0.47157776 -0.14585206 0.002263039 -0.12030913 0.12613261 -0.0011108499 0.036928304
0.1639317 0.55776656 -0.08318311 -0.13483606 -0.16323963 0.120119534 -0.024136728 -0.31837532
-0.11347997 0.5387398 -0.40220547 0.106205575 0.1966335 0.8013553 0.23484601 -0.46472

fc2.weight f4 [128, 128]
00000000: 3506 8cbd 5c6c f4bc 491c 2cbd ae2a 0e3a
00000010: 3e29 93bd 2627 3d3d 3bb2 cb3b 2322 9abc
00000020: df38 4fbd 6e5a 4c3d a01c 5b3d 204d a73d
00000030: d4d5 7638 296d 553d 84cc b3bd 7231 633d
00000040: 81e5 0b3d 862c a73d fa2d adbd 7552 a4bd
00000050: d561 07be a64d a53d 1977 843c 78a7 2a3d
00000060: 59ee 93bc ec10 19bd 8788 213a e07d 8a3d
00000070: ce09 90bd 9154 0bbd 5647 11bd 050e eebd
00000080: 791c 06be 6519 4e3d 7e8a aabd 7d7b 38bc
00000090: d2d9 4d3d 714c 92bd 0cbf 0d3d 62e3 193d
000000a0: 3d48 493d a851 8dbc 115d 873d 5592 943d
000000b0: 44c4 b2bd ecc3 4f3b 36ef 08bb fd59 433d
000000c0: abba 99bd 2ed8 1ebb 13bf 0bbd addb 8fbd
000000d0: 98e7 61bd 12d1 8dbd 248a 0f3d cdcb fcbc
000000e0: 623d 8c3d c703 10bc 9956 39bd 9bfb d1bd
000000f0: 8ee7 9d3d 2772 5ebd 1518 6fbd 172c 48bd
00000100: 1703 9b3d d923 053d 2c26 33bd c92d cf3c
00000110: 0ce5 56bc 171f 35bd 040f f63c 762c 13bd
00000120: 76de a0bd d839 4d3c ae96 3d3c 3348 aabd
00000130: c212 443c 26f9 86bb 2c5e 783b 9abb 16be
00000140: 9572 ac3c 3493 d6bc 35f1 14bd 76be bbbd
00000150: 3443 93bd 0a1f 21ba 9e7b 9ebc 407f 69bd
00000160: e170 4ebb 0220 4ebd d843 30bc 03d9 95bd
00000170: 1c06 82bc 3aee 68bd 5819 5b3d 92db b83c
00000180: 4c22 9f3d 0640 9ebd 7848 72bd e3ad 73bd
00000190: 401f 87bd 6012 89bd b515 81bd 3e0a 5ebc
000001a0: 8922 2fbd 1bef 91bd 14fe c4bc 9a01 debc
000001b0: ccd1 e7bb d81f 31bc 21e3 58bb c3d3 3d3d
000001c0: d752 bf3b 6141 28bd d2ae 89bd 8aa2 603c
000001d0: 133f 7cbd 2171 6e3c 139a 833d 9a15 13bd
000001e0: 1c49 4dbd 3776 0ebc 1da8 a9bd 38c8 dcbc
000001f0: 77b3 a0bb c972 8d3d 785e 9ebd 0b5b 4dbd
00000200: 1607 e43e 4771 123e bd29 30bf adf3 943e
00000210: f642 81bf 8789 73bf 9fba 2a3e 767e 483f
00000220: 6e9c cfbe 9ed3 c23e c326 dc3e ffd3 e13e
00000230: 47b0 da3e 2333 643e 11dc 313e 16be 9a3f
00000240: 21c1 c53e 916e abbe ff51 f3be 9c4a 003e
00000250: 603e f5bd 37e4 df3e 8fa0 08be a0c3 75bd
00000260: f21c 363e 8633 51be fba4 0f3f c8f3 d0bc
00000270: 2f8c 7d3f 81ab 103f 2e7f 9bbf c04d 7e3e
00000280: ef2e 393f 553d 6ebd 4f69 80bf 89b7 3f3e
00000290: 505f 4c3f 8f1b ddbe d5d6 123f 74e5 35c0
000002a0: 82d9 503f bf6f 163f 0743 28bf 3591 7b3e
000002b0: 9088 0f3f fa4a a43e 5363 0e3f 154f a5bf
000002c0: cfb1 4f3e d082 9fbf e48e 1cbe 655a 613e
000002d0: 35b3 e63e 561f be3e 06a7 6cbd 9f2a fc3e
000002e0: 1f5c 133f c777 7dbf b09d 01bf ec95 c03b
000002f0: 68d4 c5bf d7c6 153f 7d2e 7e3f ce1f dbbe
00000300: 2076 b13e 577a 423f 8697 ef3d ed26 563e
00000310: dec5 bd3d 6478 7fbd a985 f5bd 1634 2ebf
00000320: c447 f73e ddeb 283e a969 d33d 7624 c23d
00000330: a48d 66bf f918 333f d964 29bf 2a5f 9ebd
00000340: 903a 243f 37c4 babd 6b4a 38bf 99e0 1bbe
00000350: d5c0 093e bb1b b13e 4255 98bf 3703 533f
00000360: 9c56 48bf 7d2a 383f 9cf2 573e 9d27 b3bf
00000370: 18f7 843a 32e4 0e3d 56f2 10be c0e5 66bf
00000380: 9a93 01bd 29ed 8a3e cb23 b13e 2a66 8fbf
00000390: 72b3 22be c8ac 433f c1e0 753f 19fb 62bd
000003a0: c511 f93d 9a12 553f ee5b 10bf 0fd7 c0bb
000003b0: 9ac8 7f3e cc4d 423f 117a 9d3d aae7 5bbe
000003c0: edc1 62bf 1fc3 9c3d a2f3 a7be 09c6 c13e
000003d0: 2a3b 513f 91aa 2ebe 7c24 2d3f 75c9 1d3f
000003e0: 2fa8 713f cf12 773e be44 0cbd e8b2 f43d
000003f0: 74f3 ca3e 3dac 21bf 1f52 043f fac8 1ebe
-0.068371214 -0.029836826 -0.042019162 0.000542323 -0.07185601 0.046179913 0.006216315 -0.018815106
-0.050591346 0.049890928 0.053494096 0.08169007 5.8850113e-05 0.052106056 -0.08779243 0.055467077
0.03415442 0.08162789 -0.08456035 -0.0802354 -0.13220914 0.08071451 0.016170071 0.041663617
-0.018057989 -0.037369654 0.0006162007 0.0676229 -0.0703312 -0.034016196 -0.035468422 -0.11623768
-0.13096799 0.050317187 -0.083271965 -0.011259911 0.050256558 -0.07143486 0.034606025 0.037570365
0.049141157 -0.01725085 0.06609548 0.07254473 -0.08728841 0.0031702472 -0.0020894534 0.04769324
-0.07506307 -0.002423774 -0.03411777 -0.07024322 -0.055152506 -0.069246426 0.03504385 -0.030858899
0.06847645 -0.008789963 -0.0452486 -0.10253068 0.07710181 -0.054308083 -0.058372576 -0.048870172
0.07568949 0.03250489 -0.043737575 0.025290387 -0.0131161325 -0.044219103 0.030036457 -0.035931073
-0.07854931 0.012525998 0.011571569 -0.08314552 0.011967363 -0.0041190563 0.0037897928 -0.14720002
0.02105073 -0.026193239 -0.036362845 -0.09167187 -0.07190552 -0.0006146288 -0.019346055 -0.05700612
-0.0031500387 -0.050323494 -0.010758363 -0.07316782 -0.015872054 -0.056867816 0.053490967 0.022565637
0.077702135 -0.07727055 -0.059151143 -0.059492003 -0.06597757 -0.06692958 -0.063029684 -0.013552247
-0.042757545 -0.07125684 -0.024046935 -0.027100373 -0.0070745703 -0.010810815 -0.0033094364 0.04634453
0.0058387327 -0.041077975 -0.067227975 0.013710627 -0.06158359 0.014553339 0.06425872 -0.035909273
-0.05011855 -0.008695177 -0.08284018 -0.02695094 -0.0049042064 0.06906659 -0.07732862 -0.050135653
0.44536656 0.14301024 -0.6881369 0.2909216 -1.009856 -0.95131725 0.16672753 0.78317964
-0.40549034 0.38052076 0.42998323 0.44107053 0.42712614 0.22285132 0.17369105 1.208926
0.38623908 -0.33482793 -0.47523496 0.12528461 -0.11974788 0.43728802 -0.13342498 -0.060001016
0.1778448 -0.20429811 0.56111115 -0.025506869 0.9904203 0.56511694 -1.2148187 0.24834347
0.7233724 -0.05816396 -1.0032138 0.18722357 0.79832935 -0.43185088 0.5735906 -2.8421297
0.8158189 0.5876426 -0.65727276 0.24567111 0.5606775 0.32088453 0.55620307 -1.2914759
0.20282672 -1.2461796 -0.15288883 0.22007139 0.450586 0.37133282 -0.057776473 0.49251267
0.5756244 -0.9901089 -0.5063124 0.005877247 -1.5455446 0.5850653 0.99289685 -0.42797703
0.34660435 0.75967926 0.11698823 0.20913287 0.09266256 -0.062370673 -0.11988384 -0.68048227
0.4829694 0.16496225 0.103228875 0.094796106 -0.90059876 0.6995998 -0.66169506 -0.07732995
0.6415186 -0.09119456 -0.7198855 -0.15222396 0.13452466 0.3459147 -1.1901019 0.8242678
-0.78257155 0.7193983 0.21088642 -1.3996464 0.001014444 0.034885593 -0.14154944 -0.9019432
-0.031634904 0.27134064 0.3459762 -1.1203053 -0.15888765 0.7643552 0.9604607 -0.055415247
0.121615924 0.8323151 -0.56390274 -0.005885012 0.24978867 0.7589996 0.07689298 -0.21475092
-0.8857716 0.07654404 -0.32803065 0.378464 0.817309 -0.17057253 0.67633796 0.61635524
0.9439725 0.24128269 -0.034245245 0.11948186 0.39638865 -0.6315344 0.51687807 -0.15506354

fc2.bias f4 [128]
00000000: cf6d c6bc 4d0f c03d 44ac 9dbe 566d afbd
00000010: fcaf 2abd 23bb bb3c ba73 3cbd b930 d93e
00000020: 2f7f 0dbd 8470 e53e 00b7 40bd 0cbe a23c
00000030: 57ea b3be a917 acbc 69c3 05be 0ba5 bbbc
00000040: a3d6 25be fc0d 28be a21d f7bd 58cb 043f
00000050: b8d0 913e db92 2cbe 43eb 743e ad11 a3bc
00000060: fde3 d7be 901a a33e f27a ff3d bd30 0c3e
00000070: 94aa f5bd 4367 30bc 4b51 bb3e 3e28 4cbd
00000080: 5b92 303d 00b5 d0bc 8c27 13bd 0c62 f43d
00000090: e710 53be b597 acbe 5297 633c 9dfa 433e
000000a0: ec8e bcbd 3d59 33bd 82c7 7bbd c811 a1be
000000b0: 534a b73c 7987 163d 0300 ee3e 1168 3abd
000000c0: ae69 d23d 78b5 643e 4269 43bc 98d3 803e
000000d0: 6e74 15bd a57d 89bd c0fd 1a3d 1871 26be
000000e0: 6935 fb3b a885 b6bd e740 fb3d a991 08be
000000f0: cfbe d5bd bc1c 273e b7aa a73d 7a35 f93c
00000100: 6d17 703c 96b2 cf3e 6a1a 0dbd 6186 4e3d
00000110: 835b dbbd a6fa 28bb 3695 383c 0b35 453e
00000120: bbf6 603e 804c 8d3e cbdd 55bc e414 30bd
00000130: cc2e 39bc 7cd4 393d 1f60 a2bc a444 efbd
00000140: 1dc6 613d 3907 9ebd c390 653e e0cf 08bd
00000150: 0147 af3b 1335 643d cd53 643e 25c6 9dbd
00000160: e0f2 9ebb f4aa f13e 435d 3bbe 3174 85bd
00000170: 6ccc 583e a002 d5bb a571 a13b dff9 87be
00000180: 2b53 113d a125 b73e c92c 803d c249 11be
00000190: 9ead 513e 54ff 03be 7c0d febd 027d 3abd
000001a0: 15df 2fbd 78f2 abbd 82fa 363e 6df2 29be
000001b0: c5dc b83c 831f a7bd 0d98 a83e 8447 0e3d
000001c0: 4ae2 943d 573a 6abd 7eb6 67be e765 19be
000001d0: 13b4 69be 7a22 0abd e103 c4bd 8e3f 973e
000001e0: 9e20 89be ea3f 353d 67c8 84bd 3b55 efbd
000001f0: 8edb 1dbd b94e 9bbd 14d5 3f3d 5fa6 c4bd
-0.024222283 0.093779184 -0.3079549 -0.08565776 -0.041671738 0.022916382 -0.046008803 0.42419985
-0.03454512 0.44812405 -0.047049522 0.019866012 -0.35139725 -0.021007376 -0.13062824 -0.022905847
-0.16195159 -0.16411585 -0.12066199 0.5187278 0.28479552 -0.16852896 0.2391787 -0.01990589
-0.4216613 0.31856203 0.12474622 0.13690467 -0.11995426 -0.010766807 0.3658546 -0.049843065
0.043108325 -0.025476933 -0.035926387 0.119327635 -0.20611916 -0.33709493 0.013891058 0.1913857
-0.09206948 -0.043786276 -0.061469562 -0.3145888 0.022374308 0.03675029 0.46484384 -0.0455094
0.10274063 0.2233485 -0.011926951 0.25161433 -0.03648799 -0.06713418 0.03783965 -0.1625408
0.007666279 -0.08912212 0.122682385 -0.13336815 -0.104367845 0.16319555 0.08186858 0.030421007
0.014654023 0.40565938 -0.03444902 0.050421122 -0.10710814 -0.0025784164 0.011266043 0.19258516
0.2196912 0.27597427 -0.013053368 -0.042988673 -0.011302661 0.045368657 -0.019821225 -0.11683014
0.055120576 -0.07716221 0.22418503 -0.03340137 0.0053490405 0.055714678 0.22297592 -0.07703809
-0.0048507303 0.4720074 -0.18297295 -0.065163024 0.21171731 -0.006500557 0.0049268776 -0.26557824
0.035479706 0.35770896 0.06258542 -0.14188293 0.20476386 -0.12890369 -0.12404916 -0.045529373
-0.042937357 -0.083958566 0.17868999 -0.16596384 0.022566209 -0.08160307 0.32928506 0.03473617
0.07269724 -0.057184543 -0.22628209 -0.14980279 -0.22822599 -0.033724286 -0.09571052 0.29540676
-0.26782697 0.044250406 -0.06483536 -0.11686178 -0.03853946 -0.075833745 0.046834067 -0.09602045

fc3.weight f4 [4, 128]
00000000: 5046 67bc 4466 53bf 95fe 893f 0b82 aabe
00000010: 1ee3 34bf 4a53 0f3e cc82 293d 9de6 943f
00000020: a390 13bc 8d32 b33f d425 1c3d f678 50bd
00000030: 6960 5b3f 73db ffba 88d7 d43c 5911 51bf
00000040: b78e d8be cbe8 01bf 04ac 7dbf 8265 dc3f
00000050: 2e9d c13e 0fdb 913f 056b cd3e e327 18bf
00000060: 5b6a 6ebf febf 9fbe 54d2 00bf 91f0 b3bc
00000070: b39e e63c 4e12 123d a1dd 3ebf 4789 b83f
00000080: 5f55 293c f2d5 46bd 0655 eb3e ccbb e8be
00000090: 5c35 3fbe 6b43 bcbf 069e 5fbe 5606 91be
000000a0: 795c 13bc f2e3 9e3c d3cd 45be ab3b 27bf
000000b0: da94 993c c764 cabe 9a87 93bf 9b28 3b3d
000000c0: a10b f03d 2de3 d93e b072 653d af80 90be
000000d0: 2669 2ebf d474 273e 6863 153e dff4 6e3c
000000e0: 7b0d 2a3d 8e3f 78bd eea2 52bf 4319 743d
000000f0: 2533 e83c 97d3 56be 89a2 bc3f f84a 68be
00000100: 2ff8 c7be 819e 75bf 82bf c5be 7a93 c8bd
00000110: c89d 34bf 58f3 1abf fec7 a53b 18a1 ac3f
00000120: 23dc 4bbe 4f7f 49bf 50d0 503d 64cb 803d
00000130: 9d51 da3e ff68 abbe 8875 843c 77a6 94bc
00000140: 7329 a1bf 6365 e4bf 4410 15bf d68e af3c
00000150: 606e df3c 05e1 fdbd d673 7f3f f99b 263d
00000160: 8dbd 6bbd 7bf2 2dbf df2a b8be 55f3 92bf
00000170: a377 bebd 1c63 393d 4e71 3bbf 058e 133f
00000180: 4872 f1be 5b7a 72bf 9e57 f53f f7b6 443f
00000190: 5e79 21bf c382 dd3f 38ef 0fbd d21d 29bd
000001a0: 521a 073f a371 993d f954 293f 74e3 28bf
000001b0: 5440 bb3d de5d 993d f80a 003f 3818 25bf
000001c0: 1482 cdbe bbc3 a1bd 7de0 c83f f02f 1abf
000001d0: 51be 51bf 58bf bfbd 19b0 11bd 8c15 953f
000001e0: 9221 3dbe 08b7 3e3f 5211 91bc f877 153d
000001f0: 03ae c13f 72b0 f43c 57c3 34bd f02a 853d
00000200: d1ac 813d 92ae 5fbf 3a7a c43f 6c5c e0be
00000210: d6bc a6be e37b 6abd 003c 86bc 6c37 9b3f
00000220: 4b72 e9bc 80c6 7b3f 8e90 943c b686 01bd
00000230: 2e21 af3f eade 073d ebba 523d 9e2f 68bf
00000240: b5f8 2dbe 32b6 7a3f 3245 69bf 5584 eb3f
00000250: 6c26 893e 1bc5 893f 592c a23e 2260 31bf
00000260: 0b01 853f 1fa8 523e 69f8 14be cd6e 27bf
00000270: e57a 1bbd 5d92 e93c 25ee d8bf 00d9 e33f
00000280: d290 863d 3817 923a ae3d de3e f4e1 d2be
00000290: 9313 b23f 1e9a c9be b621 663e a802 e8be
000002a0: 5a99 c0bc 662a cd3c aee5 15bf 2f7a 9d3e
000002b0: b867 bc3d 9b39 bfbe 0b74 b4bf 06c9 2f3d
000002c0: a1fb ac3f 2f61 1d3f 1ffd 823d 42b4 21bf
000002d0: 8094 03bf b364 ecbe ae7e 71be bdad 9c3c
000002e0: 6518 5bbc 470a b1bb ca16 54bf 7eb1 893c
000002f0: 5e37 d9ba cac3 aabd bb52 bc3f c9fe 10bf
00000300: 3dec d8be 0989 01bf c5c3 ebbe a120 0e3e
00000310: ed8e 0fbe b13a 81be 3f1e 723d 6ae2 c73f
00000320: 53d7 1abf cb6f abbe 8689 583d 8e1d 5bbd
00000330: 42db 803f dca9 74bf 91d8 d8bc d410 7e3d
00000340: 807d ad3d d241 1a3c 2a45 86bf 1156 363f
00000350: aee5 74bd 7574 043f 9e22 ac3f 43cc 9cbc
00000360: 80e9 f8bc c0d1 babf 64fe 8cbe f7f2 56bf
00000370: 9c4c 02be 4356 163d 550e 20bf 718b 9a3e
00000380: ffb0 80bf c62a 4bbf 7afa e33f d8d7 3b3f
00000390: acae 81bf 60ce 4e3f ed41 8ebd eca4 d03c
000003a0: 7c20 1d3f 2a20 913c 13c3 c03f 1ea7 b6bd
000003b0: 1a0d 853b 3001 a13c cb17 923e 7bb5 3cbf
000003c0: 1bcc a8be d80d 9c3c 5a5c 9e3f e548 14bf
000003d0: e0d9 59bf e203 ad3c 487b 2cbd fe47 6a3f
000003e0: e0d5 22bf 3c57 593f d7b2 5fbd 2b02 eabc
000003f0: 3763 bb3f f973 04bb 7539 47bd 94a4 24bc
-0.014115885 -0.8257792 1.0780817 -0.3330234 -0.70659053 0.13996616 0.041384503 1.1632878
-0.009006652 1.3999802 0.038122013 -0.050896607 0.85693985 -0.0019520357 0.02598168 -0.81667095
-0.42296383 -0.5074584 -0.990906 1.7218478 0.3781523 1.1394976 0.40120712 -0.5943586
-0.93131036 -0.31201166 -0.50320935 -0.021965297 0.028151846 0.035661988 -0.7455693 1.4416894
0.010335295 -0.048543878 0.45963305 -0.45455778 -0.18672699 -1.4708074 -0.21837625 -0.28325146
-0.008994215 0.019395802 -0.19316797 -0.6532542 0.018747736 -0.39530012 -1.1525757 0.04569302
0.11720968 0.42556134 0.056017578 -0.28223178 -0.68129194 0.1635316 0.14588702 0.014584749
0.041516762 -0.060607485 -0.8227986 0.059594404 0.0283447 -0.20979153 1.4737102 -0.22684848
-0.39056537 -0.9594498 -0.3862267 -0.09793754 -0.70553255 -0.60527563 0.0050592413 1.3486662
-0.19908194 -0.7870988 0.050979912 0.06288794 0.4264039 -0.33478543 0.016169325 -0.018145783
-1.2590774 -1.7843441 -0.58227944 0.021430414 0.02727431 -0.12396435 0.99786127 0.04067609
-0.057553817 -0.6794812 -0.35970208 -1.1480509 -0.09300163 0.045260534 -0.73219764 0.5763858
-0.47157502 -0.9471795 1.9167364 0.7684168 -0.63075817 1.730553 -0.035140246 -0.041288204
0.52774537 0.074923776 0.66145283 -0.65972066 0.09143129 0.07488607 0.50016737 -0.6449008
-0.40138304 -0.07898661 1.5693508 -0.60229397 -0.81931025 -0.09362668 -0.03556833 1.16472
-0.18469837 0.74498034 -0.017708454 0.036491364 1.5131229 0.029869292 -0.044131603 0.0650233
0.0633179 -0.8737575 1.53498 -0.43820512 -0.32565945 -0.057247054 -0.016386032 1.2126288
-0.028496882 0.9834976 0.018135335 -0.03162261 1.3682001 0.03317157 0.05144779 -0.9069766
-0.16989405 0.9793426 -0.9112121 1.839976 0.26787126 1.0763277 0.3167446 -0.6928731
1.0390943 0.20571946 -0.14547886 -0.65403444 -0.037959 0.028512174 -1.6947676 1.7800598
0.06570591 0.0011145836 0.43406433 -0.41188014 1.3912224 -0.39375395 0.22473797 -0.45314527
-0.023510624 0.025044631 -0.5855359 0.3075728 0.0919947 -0.37348637 -1.4097914 0.04291632
1.3514291 0.61476415 0.06395935 -0.63165677 -0.5139847 -0.46170577 -0.2358348 0.019125814
-0.013372515 -0.0054028365 -0.82847273 0.016808268 -0.0016572287 -0.08338125 1.4712747 -0.5663877
-0.42367736 -0.50599724 -0.46047798 0.13879634 -0.14019366 -0.2524009 0.059110876 1.5615971
-0.6048481 -0.3348373 0.052865528 -0.053494982 1.0066912 -0.95571685 -0.026470454 0.062027767
0.08471203 0.009415107 -1.0489857 0.71225077 -0.059789352 0.517402 1.3448064 -0.019140368
-0.030384779 -1.4595261 -0.27537835 -0.83964485 -0.12724537 0.03670336 -0.6252187 0.3018451
-1.0054015 -0.7936214 1.7810814 0.73376226 -1.0131431 0.80783653 -0.06946168 0.025469266
0.6137769 0.017715532 1.5059532 -0.08918594 0.0040603997 0.019653887 0.28533778 -0.7371442
-0.3296822 0.01904957 1.2371933 -0.5792373 -0.85098076 0.021120016 -0.042109758 0.915161
-0.636076 0.84898734 -0.054613914 -0.028565487 1.4639653 -0.0020210727 -0.04863878 -0.010049004

fc3.bias f4 [4]
00000000: e70e 49be a276 943e 0107 bb3e 667a 813e
-0.19634591 0.2899676 0.3652878 0.25288695
