warehouseBot_dqn.pth (torch, 89698 bytes, 6 tensors)

fc1.weight f4 [128, 36]
0.0557667 -0.037774127 -0.15629297 -0.14552933 0.14067726 0.09688046 -0.09298068 0.005512814
-0.027783554 0.10358783 -0.10195111 -0.09922715 0.13840052 -0.07446349 -0.10492303 -0.0075560017
-0.030265233 0.14092997 0.03484714 0.12621841 0.041424077 0.14023179 0.071465336 0.07452409
-0.082365915 0.13141844 -0.14565963 0.08220689 -0.11494464 0.015859526 0.11699738 -0.06413569
-0.15891546 0.1433087 -0.061157625 -0.0011017721 0.62129617 -0.104889065 0.45758235 -0.10317167
0.26896325 0.09231244 0.3151678 0.2752813 -0.15618353 0.29864243 0.07719409 0.17132592
0.14721945 0.4183532 -0.1361516 0.08670542 -0.15927152 0.10524151 -0.09858569 0.20225376
-0.0377425 -0.02010545 -0.09642962 -0.09783428 0.22188264 0.042987432 0.034932863 -0.031994704
-0.09526647 -0.14191896 0.01713761 0.09422094 -0.11290394 -0.1541451 0.011606656 0.06838511
-0.20416564 -0.18610471 -0.18590146 -0.18519932 -0.0993718 -0.1328234 -0.20512173 -0.19572826
0.11056851 0.078970045 0.24699694 -0.14036882 -0.20176007 -0.15984656 -0.21069692 0.23603562
0.03706628 0.099604316 -0.20021428 -0.20063305 0.08461143 0.06007988 -0.047758058 -0.044487696
0.05950835 0.09005675 0.13145334 0.08874336 0.027600681 0.21984105 -0.051752668 -0.02279444
-0.083798625 -0.0816167 0.22968513 -0.075824425 0.10092199 0.013943992 -0.16954502 0.44384757
0.1770782 -0.0020071915 0.021511294 0.35203108 0.26254606 0.22173618 -0.018205512 0.18471153
0.26535738 -0.1698007 0.29451695 0.13616341 -0.14481156 -0.097171955 0.12306321 0.29459962
0.12698624 0.060895726 -0.12616847 -0.17494047 0.22975585 0.04808579 0.060956754 0.10111064
-0.17031324 -0.167433 0.07162105 -0.0371675 -0.17191812 -0.17982265 -0.16134188 0.126023
-0.3783294 -0.12905908 -0.19513421 -0.13144836 -0.059963044 -0.043515563 -0.35968003 -0.21084444
-0.3979342 -0.3998028 -0.3256094 0.022514267 -0.14323208 -0.3573141 -0.17758028 -0.106064826
-0.28345755 -0.04940943 -0.44766095 -0.40512657 -0.42751408 -0.40799612 -0.22729391 -0.030204961
-0.35982943 -0.39014825 -0.15896913 0.009440285 -0.040722333 -0.16795868 -0.07061009 -0.08423193
-0.16549255 -0.17679703 -0.116133966 -0.06953649 -0.2905631 -0.29303288 -0.2811681 -0.28584644
-0.063511305 -0.22237575 -0.29294026 -0.2969819 -0.27231053 -0.010782608 -0.07215082 -0.27985334
-0.28652692 0.05691757 -0.020741321 -0.013255173 -0.06787791 -0.19213516 -0.28189254 0.046305206
0.13404574 0.01803365 -0.04163689 -0.08022923 -0.27003756 0.08497891 -0.079066046 -0.24327375
-0.13517608 -0.0027574769 0.075169496 0.018773017 -0.17281717 0.03886308 0.06302109 0.10408425
-0.13455713 -0.15848222 -0.023520201 -0.11096088 -0.08801532 -0.1507283 -0.13375695 -0.123753004
-0.112688474 -0.15723522 -0.15162086 -0.13060775 -0.16298996 -0.16518708 -0.13888228 -0.14498046
0.03121919 -0.15143138 -0.09343408 -0.14237347 -0.14599445 0.10017376 0.05375842 -0.12354995
-0.0956121 -0.14882876 0.050515033 -0.035351407 -0.13474351 -0.12860173 -0.13286477 -0.16276091
-0.1347009 0.037328985 -0.013252629 0.021013498 -0.33229172 -0.21661195 -0.22440378 -0.23454827
00000000: a06b 643d 0bb9 1abd 440b 20be a405 15be
00000010: b30d 103e 4369 c63d a86c bebd d6a4 b43b
00000020: 569a e3bc db25 d43d becb d0bd 9b37 cbbd
00000030: deb8 0d3e 5080 98bd e3e1 d6bd 5698 f7bb
00000040: cbee f7bc f24f 103e e0bb 0e3d 663f 013e
00000050: 4bac 293d ec98 0f3e 6b5c 923d 16a0 983d
00000060: 76af a8bd 8e92 063e cc27 15be 165c a83d
00000070: 1868 ebbd d6eb 813c 539c ef3d 9359 83bd
00000080: bcba 22be 84bf 123e 6b80 7abd 5669 90ba
00000090: 440d 1f3f 14d0 d6bd 3c48 ea3e ab4b d3bd
000000a0: 8db5 893e 4e0e bd3d ad5d a13e acf1 8c3e
000000b0: 93ee 1fbe a9e7 983e ef17 9e3d 1070 2f3e
000000c0: b2c0 163e 6432 d63e 536b 0bbe 9c92 b13d
000000d0: 1318 23be dc88 d73d 4be7 c9bd 9c1b 4f3e
000000e0: e197 1abd 2fb4 a4bc e57c c5bd 575d c8bd
000000f0: 3435 633e 9713 303d c315 0f3d e10c 03bd
00000100: 111b c3bd 3453 11be 2c64 8c3c e8f6 c03d
00000110: 2e3a e7bd 37d8 1dbe d829 3e3c 7e0d 8c3d
00000120: cc10 51be 3c92 3ebe f45c 3ebe e4a4 3dbe
00000130: 7183 cbbd db02 08be 6e0b 52be fd6c 48be
00000140: be71 e23d 0cbb a13d c4ec 7c3e d8bc 0fbe
00000150: 319a 4ebe d1ae 23be efc0 57be 52b3 713e
00000160: d0d2 173d 59fd cb3d f904 4dbe c072 4dbe
00000170: c248 ad3d 5216 763d f49d 43bd bb38 36bd
00000180: 07bf 733d ac6f b83d b49b 063e 14bf b53d
00000190: d31a e23c 031e 613e 9bfa 53bd 68bb babc
000001a0: 9d9e abbd a826 a7bd 9432 6b3e d649 9bbd
000001b0: 30b0 ce3d 5775 643c 369d 2dbe fd3f e33e
000001c0: fd53 353e 168b 03bb 7438 b03c 6b3d b43e
000001d0: 706c 863e cf0e 633e ba23 95bc 0525 3d3e
000001e0: ecdc 873e 3ce0 2dbe edca 963e 6c6e 0b3e
000001f0: 7b49 14be 1702 c7bd 9008 fc3d c3d5 963e
00000200: ae08 023e cc6d 793d 4f32 01be 9823 33be
00000210: 1e45 6b3e 9bf5 443d caad 793d 1813 cf3d
00000220: 9866 2ebe 8e73 2bbe 0fae 923d f33c 18bd
00000230: 4e0b 30be 6e23 38be ce36 25be 2c0c 013e
00000240: 64b4 c1be 1028 04be 43d1 47be 669a 06be
00000250: cf9b 75bd 603d 32bd fb27 b8be 9be7 57be
00000260: 08be cbbe f4b2 ccbe 46b6 a6be d76f b83c
00000270: 6eab 12be e0f1 b6be 9bd7 35be 8438 d9bd
00000280: 5921 91be 8b61 4abd d133 e5be c06c cfbe
00000290: 20e3 dabe dee4 d0be bcbf 68be 6570 f7bc
000002a0: 903b b8be 83c1 c7be cec8 22be 6dab 1a3c
000002b0: 76cc 26bd 5cfd 2bbe 069c 90bd ca81 acbd
000002c0: e176 29be 480a 35be a5d7 edbd 2669 8ebd
000002d0: b0c4 94be 6808 96be 44f5 8fbe 775a 92be
000002e0: 3712 82bd 78b6 63be 44fc 95be 030e 98be
000002f0: 496c 8bbe 89a9 30bc cfc3 93bd f048 8fbe
00000300: a8b3 92be 6622 693d b4e9 a9bc 3a2c 59bc
00000310: 9303 8bbd 14bf 44be 3854 90be 87aa 3d3d
00000320: 4943 093e 4ebb 933c 728b 2abd 394f a4bd
00000330: 5d42 8abe 6c09 ae3d 61ed a1bd c11c 79be
00000340: 996b 0abe c9b6 34bb 77f2 993d dfc9 993c
00000350: fcf6 30be e52e 1f3d 3411 813d 202a d53d
00000360: 58c9 09be 2a49 22be 70ad c0bc 753f e3bd
00000370: 6041 b4bd 8558 1abe 95f7 08be 3772 fdbd
00000380: 37c9 e6bd 4502 21be 8042 1bbe 0abe 05be
00000390: d7e6 26be cd26 29be 2837 0ebe c275 14be
000003a0: 63bf ff3c d410 1bbe 5e5a bfbd 5aca 11be
000003b0: 927f 15be e627 cd3d ca31 5c3d c207 fdbd
000003c0: 47d0 c3bd 9166 18be dae8 4e3d a3cc 10bd
000003d0: 34fa 09be 2cb0 03be b40d 08be ccaa 26be
000003e0: 08ef 09be 47e6 183d 8e21 59bc 8024 ac3c
000003f0: 2422 aabe 86cf 5dbe 1bca 65be 6c2d 70be

fc1.bias f4 [128]
-0.1539666 -0.26492602 0.07371377 -0.30207032 0.4258935 0.187109 -0.109216996 0.6321977
0.06957132 -0.05607298 -0.1715092 -0.19182856 -0.2962734 -0.021505037 0.27943733 -0.17035122
0.22795263 -0.2754212 0.41865024 0.48015568 -0.16350514 -0.19341137 0.61006296 -0.07689538
0.18098287 0.29547074 0.0390232 -0.180326 0.5858868 0.257503 -0.19024116 -0.027694238
0.67072606 -0.17020541 0.06933612 -0.10568421 0.3419395 -0.11193575 -0.094691284 0.5911087
-0.23921415 0.356855 0.3924292 0.52767086 0.008188396 0.44475505 0.40344176 -0.025521943
-0.081964776 -0.006960979 0.45853662 -0.095553376 0.077015094 -0.21111266 0.078740805 -0.22816993
0.32985243 -0.25742927 0.16359869 -0.12567165 -0.17371754 0.22510295 0.44961184 0.5641325
0.13850172 0.10213265 0.51585424 0.45233375 -0.10670364 0.5536721 0.032520473 0.16516474
0.22643398 -0.11084404 -0.22812502 0.16858484 0.57677364 0.08625485 0.44835517 -0.10806673
0.3877075 0.15865262 -0.24704054 0.16739118 0.34244278 0.3782006 -0.058527377 -0.2875989
-0.100711614 -0.15679587 -0.16481456 -0.26657498 -0.029625097 -0.06156646 0.4801279 0.07358843
0.56092757 -0.41709825 -0.31563184 -0.2617438 -0.15896825 0.57526255 -0.047341704 0.29486585
0.58366936 -0.11899523 0.40097296 -0.2522838 0.37874123 -0.1629824 -0.21437497 0.6490454
-0.124887794 -0.37894276 0.31078023 0.30454728 0.58862615 0.40798464 0.15054908 -0.3013808
-0.27234143 -0.10412845 -0.1676546 0.51595366 -0.2806182 -0.14512576 -0.15918316 0.19502364
00000000: 6ca9 1dbe 62a4 87be 3ff7 963d f6a8 9abe
00000010: b60e da3e 8099 3f3e 29ad dfbd b5d7 213f
00000020: 697b 8e3d c8ac 65bd 1ca0 2fbe b56e 44be
00000030: 26b1 97be 552b b0bc 6912 8f3e 8d70 2ebe
00000040: 6a6c 693e 0204 8dbe 5359 d63e f7d6 f53e
00000050: e46d 27be a10d 46be 162d 1c3f 537b 9dbd
00000060: 9353 393e f147 973e cad6 1f3d 61a7 38be
00000070: adfc 153f 6fd7 833e 94ce 42be 07df e2bc
00000080: b4b4 2b3f 544a 2ebe 1800 8e3d f770 d8bd
00000090: b212 af3e 923e e5bd 81ed c1bd e652 173f
000000a0: 8ef4 74be b3b5 b63e 7bec c83e 7015 073f
000000b0: 9f28 063c efb6 e33e eb8f ce3e 6513 d1bc
000000c0: 26dd a7bd ed18 e4bb 50c5 ea3e 7db1 c3bd
000000d0: 17ba 9d3d eb2d 58be dc42 a13d 61a5 69be
000000e0: 6be2 a83e c5cd 83be 6a86 273e 12b0 00be
000000f0: 03e3 31be 6381 663e 8633 e63e fd6a 103f
00000100: 65d3 0d3e ec2a d13d 060f 043f 4a98 e73e
00000110: 7087 dabd 74bd 0d3f 3034 053d f220 293e
00000120: 4fde 673e 3302 e3bd 9b99 69be 81a1 2c3e
00000130: 70a7 133f 62a6 b03d cf8e e53e 1752 ddbd
00000140: 9981 c63e d575 223e 32f8 7cbe 9868 2b3e
00000150: a954 af3e 82a3 c13e 67ba 6fbd 2a40 93be
00000160: e441 cebd 198f 20be 26c5 28be 847c 88be
00000170: 55b0 f2bc 1d2d 7cbd 53d3 f53e 88b5 963d
00000180: f398 0f3f e78d d5be 7f9a a1be 4903 86be
00000190: 93c8 22be 6844 133f 60e9 41bd a8f8 963e
000001a0: 5b6b 153f c5b3 f3bd 544c cd3e 582b 81be
000001b0: 5fea c13e dce4 26be 1d85 5bbe d727 263f
000001c0: 2cc5 ffbd c904 c2be 961e 9f3e 9fed 9b3e
000001d0: 34b0 163f 5de3 d03e 8a29 1a3e 964e 9abe
000001e0: 5670 8bbe 4c41 d5bd a6ad 2bbe 8a15 043f
000001f0: 30ad 8fbe d99b 14be e900 23be 47b4 473e

fc2.weight f4 [128, 128]
-0.0040238444 0.122132994 -0.07772012 0.069440536 -0.20261785 -0.14876585 0.07706806 -0.3791868
0.015331797 0.069082215 -0.016705517 -0.030481469 -0.09129306 -0.041398596 -0.30424967 0.06321436
-0.36039585 0.01532879 -0.3716261 -0.37843224 0.046413805 0.024996033 -0.2973522 -0.020560892
-0.29224235 -0.32860377 0.013401784 -0.11164512 -0.24817258 -0.20268834 0.07124624 -0.09644257
-0.6088165 -0.1321745 -0.23266909 -0.0627517 -0.22895522 0.15865348 0.11958512 0.0006567646
-0.01321792 -0.221274 -0.19084406 -0.34708384 -0.037640493 -0.3055797 -0.23053457 0.049368784
-0.15138076 -0.012912207 -0.18546818 -0.017756896 -0.25404298 0.109335855 -0.13760214 0.06804089
-0.31103122 0.037883174 -0.22422443 -0.05557999 0.027148724 -0.0766576 -0.11386819 -0.24510877
-0.28766996 -0.017062493 -0.22119205 -0.4438645 -0.22044748 -0.07699923 -0.101939134 -0.084480695
-0.11755882 -0.05849977 0.10668979 -0.088344246 -0.31425196 -0.06563586 -0.46218222 -0.15689525
-0.21745375 -0.12220133 0.064492434 -0.054221474 -0.28266168 -0.17113514 -0.073227525 0.17957209
-0.06608023 0.026153022 -0.052906916 0.010438483 -0.065104574 -0.11655593 -0.18928158 -0.14348054
-0.33618262 0.07952261 0.098996535 0.014161224 -0.053167626 -0.17839833 -0.10158888 -0.26733845
-0.31112748 0.058555614 -0.17687419 0.13687834 -0.12209377 -0.09860681 0.12221919 -0.29809222
0.103916764 0.10549106 -0.24295856 -0.10841538 -0.456418 -0.26754764 -0.11426457 0.16862093
-0.022849055 -0.11505945 -0.029759673 -0.3187722 0.1849401 -0.1629311 -0.025516193 0.05558631
-0.072128534 0.23165138 0.0013115515 0.08075663 0.16681169 -0.10275185 -0.016305817 0.073767975
0.07866918 0.33820245 0.12958911 -0.1472905 -0.25672525 -0.031218637 -0.0399924 -0.08636746
0.19878191 -0.12721744 0.3229914 0.18605946 -0.0032794778 0.100011624 -0.029037602 0.003587368
0.07664973 0.07020953 0.029750021 0.12927172 -0.11487204 0.3887308 0.32952738 -0.21319991
0.26334965 0.015427942 -0.13095483 0.11198811 0.17423743 0.272251 0.19018318 0.017256752
0.1143519 0.25750476 0.09668908 0.14478737 0.10225988 0.062246528 0.029769238 -0.44429758
0.18636583 -0.24377231 0.19142485 -0.03118077 0.016580101 0.1046652 -0.10387877 -0.21453816
0.22143401 -0.079679474 0.13882999 -0.020400591 -0.36582747 -0.08033688 0.02265549 -0.017482642
-0.07492694 0.0044950387 0.21050003 0.28463265 -0.105309315 0.1257036 -0.09206449 -0.0017509961
0.27275214 0.03611252 0.05901612 0.3095122 0.17346108 0.02647943 0.11792041 0.14293462
0.15374453 -0.09673882 0.4064954 0.18052205 0.40608397 0.056390744 0.19111137 -0.07457308
-0.036586456 0.17202482 -0.019637523 0.04666124 0.03781848 -0.20171013 0.13596322 -0.08728119
0.096707635 0.08939777 0.045075938 0.06487808 0.034753468 0.30623516 -0.09193767 0.18204556
0.08070414 0.055781513 0.10565701 0.29930454 0.17102894 -0.02722603 0.2569731 0.15565531
0.06738698 0.07752684 0.16163616 -0.07023922 0.20163478 -0.13962768 -0.21339981 -0.13008805
-0.26699135 -0.053583495 -0.09554179 0.21317835 0.1853734 -0.029944915 0.014086838 0.103759274
00000000: 74da 83bb dd20 fa3d ba2b 9fbd d736 8e3d
00000010: 0e7b 4fbe 1356 18be dcd5 9d3d c624 c2be
00000020: 3832 7b3c fa7a 8d3d 02da 88bc 46b4 f9bc
00000030: dbf7 babd 9391 29bd 9dc6 9bbe 8876 813d
00000040: ce85 b8be 9b25 7b3c c745 bebe dfc1 c1be
00000050: 671c 3e3d 7bc4 cc3c 8c3e 98be 516f a8bc
00000060: caa0 95be c13e a8be 2893 5b3c 32a6 e4bd
00000070: f420 7ebe 888d 4fbe 8ce9 913d af83 c5bd
00000080: 66db 1bbf c158 07be ce40 6ebe f783 80bd
00000090: 3d73 6abe 0f76 223e 0be9 f43d ba2a 2c3a
000000a0: fa8f 58bc a795 62be a06c 43be f9b4 b1be
000000b0: eb2c 1abd f174 9cbe 4111 6cbe ec36 4a3d
000000c0: 8f03 1bbe b98d 53bc 5feb 3dbe e976 91bc
000000d0: ec11 82be 7aeb df3d 93e7 0cbe 0659 8b3d
000000e0: 7c3f 9fbe 632b 1b3d 179b 65be d8a7 63bd
000000f0: 0067 de3c a9fe 9cbd ba33 e9bd cbfd 7abe
00000100: 7a49 93be a4c6 8bbc 2b80 62be 3542 e3be
00000110: fcbc 61be c6b1 9dbd 77c5 d0bd 3704 adbd
00000120: aec2 f0bd 749d 6fbd 2d80 da3d d4ed b4bd
00000130: a2e5 a0be 186c 86bd 26a3 ecbe 26a9 20be
00000140: 32ac 5ebe b144 fabd 9c14 843d 5617 5ebd
00000150: 08b9 90be 0d3e 2fbe 50f8 95bd bfe1 373e
00000160: 1255 87bd dd3e d63c ecb4 58bd 2c06 2b3c
00000170: 8c55 85bd e0b4 eebd 08d3 41be 90ec 12be
00000180: 2120 acbe c0dc a23d b2be ca3d 7a04 683c
00000190: 4cc6 59bd 0dae 36be d50d d0bd 96e0 88be
000001a0: 1a4c 9fbe 03d8 6f3d 821e 35be d629 0c3e
000001b0: 4c0c fabd 5ef2 c9bd 0e4e fa3d 8b9f 98be
000001c0: 50d2 d43d b20b d83d 21ca 78be e208 debd
000001d0: 9faf e9be 01fc 88be 8b03 eabd f7aa 2c3e
000001e0: f12d bbbc 4aa4 ebbd 8fca f3bc 1c36 a3be
000001f0: f060 3d3e 69d7 26be 5607 d1bc 78ae 633d
00000200: 20b8 93bd 0536 6d3e 5ee8 ab3a bb63 a53d
00000210: afd0 2a3e 906f d2bd c793 85bc aa13 973d
00000220: 4f1d a13d df28 ad3e 02b3 043e 52d3 16be
00000230: 7e71 83be 3abe ffbc 12cf 23bd 6ce1 b0bd
00000240: 7c8d 4b3e 4a45 02be 215f a53e 5f86 3e3e
00000250: 82ec 56bb e5d2 cc3d 44e0 edbc 0c1a 6b3b
00000260: 89fa 9c3d 04ca 8f3d 51b6 f33c ce5f 043e
00000270: 0842 ebbd b907 c73e d0b7 a83e 1451 5abe
00000280: c4d5 863e 7bc5 7c3c 0619 06be 065a e53d
00000290: 4c6b 323e 7c64 8b3e 61bf 423e 085e 8d3c
000002a0: 5431 ea3d aad7 833e ed04 c63d 2443 143e
000002b0: a16d d13d 37f6 7e3d 9ede f33c f97a e3be
000002c0: afd6 3e3e 739f 79be e004 443e d06e ffbc
000002d0: fed2 873c b55a d63d 64be d4bd e4af 5bbe
000002e0: 99bf 623e fe2e a3bd 7329 0e3e 241f a7bc
000002f0: bd4d bbbe aa87 a4bd 0298 b93c c237 8fbc
00000300: 4c73 99bd 1e4b 933b 528d 573e 5fbb 913e
00000310: 69ac d7bd 72b8 003e 4f8c bcbd ae81 e5ba
00000320: 2ba6 8b3e b9ea 133d e3ba 713d 6278 9e3e
00000330: c89f 313e 64eb d83c 4280 f13d 745d 123e
00000340: 356f 1d3e 011f c6bd 2a20 d03e c6da 383e
00000350: 3dea cf3e fbf9 663d b3b2 433e c5b9 98bd
00000360: aedb 15bd 4627 303e dfde a0bc db1f 3f3d
00000370: 8de7 1a3d 1a8d 4ebe f139 0b3e 7bc0 b2bd
00000380: a70e c63d 2e16 b73d 8ca1 383d ccde 843d
00000390: a759 0e3d dbca 9c3e d149 bcbd 276a 3a3e
000003a0: 3648 a53d 287b 643d b462 d83d 723e 993e
000003b0: 3622 2f3e 2009 dfbc fa91 833e 1b64 1f3e
000003c0: 2f02 8a3d 64c6 9e3d f383 253e 95d9 8fbd
000003d0: 5979 4e3e 8ffa 0ebe 7b85 5abe cd35 05be
000003e0: 17b3 88be 5e7a 5bbd 6aab c3bd 6d4b 5a3e
000003f0: 86d2 3d3e 0a4f f5bc 7bcc 663c be7f d43d

fc2.bias f4 [128]
-0.24521297 0.34623966 -0.17502207 0.33765098 0.16656402 -0.13468441 -0.17336613 0.48841485
0.46166858 -0.3000079 -0.118997216 -0.009232628 -0.11330888 -0.07513633 -0.10322378 -0.026291607
0.089236364 -0.008424572 0.44029054 0.36366612 -0.059100218 -0.15808664 0.16611317 -0.073134035
-0.22359604 -0.09302767 0.1964293 0.44975 -0.23684601 0.07699872 0.50147676 0.059447296
-0.055192444 0.10283709 -0.25594413 0.07651086 -0.14190778 0.37225765 -0.09155419 -0.030622933
0.3684431 -0.095692575 0.0871407 -0.03749316 0.15519834 0.3693529 -0.11843026 0.07368079
0.4532985 -0.05414263 -0.037734456 -0.029772503 -0.0631561 0.3323023 0.35046262 -0.23289827
0.40106916 0.116391435 0.31776994 -0.15558234 -0.09510225 0.016860638 -0.04695705 0.020765275
0.09273824 -0.017352963 0.21292299 0.35367247 -0.020317085 0.3582621 0.14159046 0.37838766
0.2717313 0.24782208 -0.28707048 -0.10812087 -0.18440881 0.07845898 0.2170153 0.49438396
0.42018482 -0.06400611 0.07981102 0.29554754 0.11615063 0.14090188 0.39543027 -0.15061675
-0.07804856 0.43560225 0.39817137 0.049048338 0.39471176 0.2240151 -0.09865065 -0.07834949
0.24475515 0.13112462 0.20957246 -0.050267953 0.3178026 0.44191676 -0.15155363 -0.00427951
0.20510653 -0.08333274 -0.10464681 0.4376434 -0.03442856 0.29981586 -0.11195643 -0.06703904
0.23758642 0.27672103 -0.22086364 0.39077616 0.055546578 0.23305579 0.47471195 -0.11002075
0.081267804 0.055959232 0.42329633 -0.09028468 -0.025253603 -0.010806493 0.2894995 -0.23119539
00000000: 1c19 7bbe 5346 b13e fc38 33be 97e0 ac3e
00000010: c28f 2a3e b6ea 09be e486 31be 8311 fa3e
00000020: d35f ec3e a39a 99be d0b4 f3bd 7344 17bc
00000030: 7c0e e8bd 14e1 99bd fd66 d3bd 7f61 d7bc
00000040: 8ec1 b63d 3707 0abc c36d e13e 7232 ba3e
00000050: 1213 72bd 77e1 21be 9219 2a3e 4cc7 95bd
00000060: 5cf6 64be 4b85 bebd c324 493e a245 e63e
00000070: c387 72be 81b1 9d3d c860 003f 027f 733d
00000080: 7911 62bd 419c d23d 1c0b 83be bab1 9c3d
00000090: 4650 11be 8e98 be3e c380 bbbd f2dc fabc
000000a0: 93a4 bc3e 78fa c3bd d376 b23d 6e92 19bd
000000b0: 50ec 1e3e d31b bd3e 908b f2bd f4e5 963d
000000c0: be16 e83e aac4 5dbd 728f 1abd 77e5 f3bc
000000d0: fc57 81bd 8723 aa3e d66f b33e e27c 6ebe
000000e0: f058 cd3e a25e ee3d beb2 a23e fa50 1fbe
000000f0: f8c4 c2bd 521f 8a3c 0956 40bd f01b aa3c
00000100: 8ced bd3d cd27 8ebc 7c08 5a3e 8f14 b53e
00000110: 0470 a6bc 216e b73e 17fd 103e 07bc c13e
00000120: 5d20 8b3e 12c5 7d3e e7fa 92be 7a6e ddbd
00000130: aad5 3cbe 1aaf a03d 4239 5e3e e51f fd3e
00000140: 7722 d73e a315 83bd f673 a33d 0252 973e
00000150: 62e0 ed3d 9548 103e d675 ca3e 473b 1abe
00000160: ecd7 9fbd 4207 df3e 1edd cb3e e9e6 483d
00000170: a917 ca3e 3764 653e 5a09 cabd b375 a0bd
00000180: 18a1 7a3e 8845 063e 2a9a 563e c5e5 4dbd
00000190: 06b7 a23e ea42 e23e e030 1bbe 223b 8cbb
000001a0: 7207 523e 5baa aabd 1151 d6bd cc12 e03e
000001b0: f604 0dbd 7781 993e 6a49 e5bd c44b 89bd
000001c0: db49 733e 61ae 8d3e 142a 62be d013 c83e
000001d0: cf84 633d 2da6 6e3e 720d f33e 8f52 e1bd
000001e0: bc6f a63d 8235 653d 4cba d83e 2de7 b8bd
000001f0: a5e0 cebc b80d 31bc 4739 943e 7cbe 6cbe

fc3.weight f4 [4, 128]
0.05785679 0.026154678 -0.033143762 0.03315429 0.09125614 -0.03250856 -0.07335741 0.116296306
0.1203619 -0.019526515 -0.05752382 8.4112886e-05 -0.052868273 0.07374442 0.08272033 0.072121345
0.2467668 0.18977265 0.10035801 0.11106325 -0.052689735 -0.0727959 0.124169655 -0.042357117
-0.0063656364 0.044157475 0.123119414 0.065785855 0.07742835 -0.19459811 0.076606415 0.16449843
0.2526789 0.05533297 0.06592057 0.16047734 0.02849918 0.12258553 0.03385253 0.25130108
0.108767584 -0.015404635 0.2619886 0.048190754 0.028710311 0.12647276 0.07563856 0.45567572
0.100758836 0.13843438 0.01116193 -0.0040116976 -0.017600251 0.15760928 0.048682686 -0.033361424
0.12960735 0.088421166 0.109040044 0.06346473 0.1203607 -0.2678215 0.041927498 0.05399401
0.009443222 0.06896149 0.0020253554 0.07129675 -0.04878936 0.058923203 0.050972443 0.06626892
-0.21177663 0.116411254 0.09337958 0.076796755 -0.046563305 0.32143214 0.07509805 0.07798636
0.0953051 0.12806073 0.29637673 0.053779926 0.11504544 0.005559887 0.08997739 0.033694893
0.07690757 0.116452135 0.058250245 -0.08041021 0.1258694 -0.110980004 0.05028677 0.050614487
-0.27917325 0.18959315 0.031669967 -0.29863888 0.06867869 0.09931906 0.15728529 0.27098912
0.09732271 -0.03527099 -0.05551408 0.09882677 -0.17428927 0.090884306 -0.022608107 -0.05856549
0.11783916 0.057076424 0.056088366 0.07497163 -0.082768045 -0.26840967 0.07505689 -0.019430531
0.09248268 0.043577787 0.097409114 0.027084924 0.005076001 -0.033441544 0.0875676 -0.07477933
0.07275589 0.2276291 -0.15856944 0.10681154 0.10982389 -0.349003 -0.029630456 0.14353229
0.09581342 0.092291534 0.07243555 -0.050754793 -0.022572517 -0.0026729885 0.22491325 0.040058468
0.05607117 -0.06498699 0.13953362 0.13346559 -0.016784256 -0.27248836 0.122586586 0.035353262
0.11339308 -0.010622379 0.090338185 0.1314198 0.17832236 0.095257625 0.15773031 0.038927104
0.18184349 0.1515098 -0.09676174 -0.43127793 -0.35236818 0.05188902 0.0009877086 0.035802055
0.046751864 0.024505422 -0.13048737 0.049465403 0.06522433 0.10093019 0.04836778 0.15497664
0.13816938 0.038007546 0.06487573 -0.030434953 -0.031359673 -0.0017781649 0.11670532 -0.15581602
0.07694857 0.01004726 0.100354105 -0.3209131 0.03986182 0.2564385 -0.0032174245 0.020986648
0.23363878 0.07689474 0.19909027 0.04352546 -0.044593923 0.14104323 -0.1526218 0.09825554
0.2716886 0.106544666 -0.16535361 -0.091180794 -0.17051768 0.0956586 0.10086998 0.10900799
0.12542601 0.24740228 0.20488393 0.08427708 0.053821918 -0.012368246 0.13410473 0.09452153
0.056697384 0.107206725 0.09918815 0.096688576 0.06999977 0.18636604 0.00044890723 -0.07517068
0.26705587 0.18926445 0.045442946 0.24108112 0.025740247 0.13938685 0.16055399 0.24116157
0.17181762 -0.05106512 0.020437518 0.11745683 0.23944244 0.11110865 0.09050805 -0.0352484
0.10243892 -0.008059706 -0.20763434 0.14323285 0.022973455 0.32178044 0.11150414 0.16362302
0.06480818 0.24339181 0.13742585 -0.057567336 0.014970926 0.07860234 0.1022636 -0.06670634
00000000: 3efb 6c3d 5642 d63c c1c1 07bd cbcc 073d
00000010: 80e4 ba3d b227 05bd 693c 96bd c22c ee3d
00000020: 4d80 f63d 12f6 9fbc 199e 6bbd c365 b038
00000030: 678c 58bd 5107 973d 4769 a93d 5bb4 933d
00000040: 70b0 7c3e c353 423e 8088 cd3d 2175 e33d
00000050: 31d1 57bd 0416 95bd a94c fe3d a87e 2dbd
00000060: d496 d0bb 78de 343d 0826 fc3d bcba 863d
00000070: c192 9e3d ba44 47be d3e3 9c3d 4772 283e
00000080: 215f 813e d3a4 623d 5d01 873d 2c54 243e
00000090: 1d77 e93c 1f0e fb3d f3a8 0a3d 89aa 803e
000000a0: 8ac1 de3d b963 7cbc 5f23 863e ab63 453d
000000b0: e331 eb3c 1382 013e 64e8 9a3d 544e e93e
000000c0: a65a ce3d bec1 0d3e 87e0 363c 8f74 83bb
000000d0: 672e 90bc 5464 213e 7f67 473d fda5 08bd
000000e0: cab7 043e 2816 b53d 6350 df3d ccf9 813d
000000f0: ac7f f63d e61f 89be 2bbc 2b3d d328 5d3d
00000100: beb7 1a3c af3b 8d3d d3bb 043b 0804 923d
00000110: 5ad7 47bd 7559 713d 7bc8 503d 00b8 873d
00000120: f9db 58be 0669 ee3d cb3d bf3d 9e47 9d3d
00000130: 2ab9 3ebd c192 a43e 02cd 993d 50b7 9f3d
00000140: 522f c33d 5a22 033e b1be 973e 5748 5c3d
00000150: f29c eb3d b62f b63b 1146 b83d a803 0a3d
00000160: b781 9d3d 757e ee3d cf97 6e3d 1cae a4bd
00000170: e8e3 003e 7c49 e3bd 80f9 4d3d 2351 4f3d
00000180: ccef 8ebe b524 423e 5eb8 013d 32e7 98be
00000190: 6aa7 8c3d cb67 cb3d 650f 213e 16bf 8a3e
000001a0: 2151 c73d 5078 10bd bb62 63bd b165 ca3d
000001b0: e378 32be 8d21 ba3d a334 b9bc 5ee2 6fbd
000001c0: a855 f13d f8c8 693d eabc 653d ba8a 993d
000001d0: 4b82 a9bd fe6c 89be 6db7 993d c72c 9fbc
000001e0: 8f67 bd3d 9f7e 323d 6e7e c73d 34e1 dd3c
000001f0: 9554 a63b 00fa 08bd a456 b33d e825 99bd
00000200: 0a01 953d 9a17 693e 0760 22be 02c0 da3d
00000210: 59eb e03d 85b0 b2be 92bb f2bc 21fa 123e
00000220: d439 c43d 5803 bd3d 1759 943d 42e4 4fbd
00000230: 00ea b8bc 4e2d 2fbb a94f 663e 5914 243d
00000240: e2aa 653d e617 85bd e7e1 0e3e 34ab 083e
00000250: 237f 89bc 9883 8bbe ad0e fb3d 95ce 103d
00000260: a23a e83d 7d09 2ebc 3a03 b93d e992 063e
00000270: 239a 363e 6e16 c33d 0e84 213e 0772 1f3d
00000280: 2e35 3a3e 6325 1b3e 052b c6bd 76d0 dcbe
00000290: 9a69 b4be 9589 543d 0076 813a 2da5 123d
000002a0: e27e 3f3d 98bf c83c 7b9e 05be 3c9c 4a3d
000002b0: 5594 853d 7db4 ce3d 4b1d 463d 32b2 1e3e
000002c0: 467c 0d3e cdad 1b3d 91dd 843d b952 f9bc
000002d0: 0073 00bd 5011 e9ba 3303 ef3d 3c8e 1fbe
000002e0: 3697 9d3d 439d 243c 7486 cd3d b94e a4be
000002f0: 2646 233d e84b 833e 6ddb 52bb 31ec ab3c
00000300: 013f 6f3e fd7a 9d3d 52de 4b3e c147 323d
00000310: 1ea8 36bd a36d 103e e448 1cbe 333a c93d
00000320: c51a 8b3e 1734 da3d 7552 29be ffbc babd
00000330: 309c 2ebe a8e8 c33d ec94 ce3d 953f df3d
00000340: ad6f 003e 0657 7d3e 18cd 513e 7699 ac3d
00000350: 5f74 5c3d 2fa4 4abc c052 093e 8194 c13d
00000360: 843b 683d 338f db3d 2823 cb3d a904 c63d
00000370: 0a5c 8f3d bdd6 3e3e 4f5b eb39 16f3 99bd
00000380: 8cbb 883e 8ace 413e 6222 3a3d f8dd 763e
00000390: 36dd d23c 6dbb 0e3e 4468 243e 0ff3 763e
000003a0: f5f0 2f3e a929 51bd 956c a73c 358d f03d
000003b0: 6630 753e ef8c e33d 495c b93d a060 10bd
000003c0: 7fcb d13d db0c 04bc 199e 54be a2ab 123e
000003d0: d432 bc3c 68c0 a43e 485c e43d cb8c 273e
000003e0: 27ba 843d b43b 793e 5db9 0c3e bacb 6bbd
000003f0: 9d48 753c 43fa a03d 946f d13d 559d 88bd

fc3.bias f4 [4]
0.0035380155 0.3202187 0.062183987 0.42523223
00000000: 0dde 673b b5f3 a33e a3b4 7e3d 0ab8 d93e
